models/mnist_CNN1/model.pth (torch, 6927 bytes, 8 tensors)

conv1.weight f4 [6, 1, 4, 4]
00000000: 0598 9fbc 0e43 333d f1c1 bf3e b897 0a3e
00000010: 35cb f63e d378 253f 3f6c 323f 3c30 0a3f
00000020: 5b16 143f b1bf 4d3f 3639 243f f96d 9a3e
00000030: b9f4 173f 2202 203f d61b 233f 60f0 d13e
00000040: e4ab 323e 0fcd a53e 6cde 5a3e 46b1 dcbd
00000050: 0471 aabe b03d 3dbd 39f6 babd e6ab febe
00000060: 93b6 9ebe e035 32be 2ebd 8ebe a3ee 02bf
00000070: 6675 1ebf 58b0 d7be d025 7abe 60dd 27be
00000080: 5485 a13e c820 f03e 93bf 083f ebc6 bb3e
00000090: c1dd 103f 7f48 b73e e244 2d3f 20aa 223e
000000a0: a143 9e3e 6f40 003f 00c4 893e 6893 153f
000000b0: 8824 f83d d8be aa3e b184 0e3e 3937 603d
000000c0: 68a6 ca3d b692 c63e 68bf a23e 74e8 9b3d
000000d0: 94f1 913e c47e 7d3e 20fd 0f3f fb31 013f
000000e0: d5b2 dc3e 2e28 973e c7f5 063f 3e0b f43e
000000f0: 6737 b73e 2fa5 ae3e ea0c 953e 76c9 0c3f
00000100: 21eb dd3c 403c cb3e 07b5 ea3e 4fa1 733e
00000110: 3ba6 f23e f15e 0a3f 37a8 fd3e 97b2 133f
00000120: 236f c93e de00 233f 4804 933e 1d28 db3e
00000130: 6424 173f 6eea 813e 2569 c93d 65bf f23e
00000140: a6d2 24bd 6717 483d 2af1 653e ca33 b83e
00000150: d9ba 443e 4038 ae3e 830c 133f 8171 f73e
00000160: fce7 c23e 4fc5 c73e 0d0b bd3e ee86 083f
00000170: 52d0 ce3e 16d6 f83e 72f0 a93e 4d67 be3e
-0.019481668 0.04376512 0.37452653 0.13534439 0.4820191 0.6463749 0.6969642 0.5397985
0.5784661 0.8037062 0.64149797 0.30162027 0.5935779 0.62503254 0.6371435 0.41003704
0.17448384 0.3238301 0.2137391 -0.10776 -0.3328935 -0.046201408 -0.091289945 -0.49740523
-0.30998668 -0.17403364 -0.27878708 -0.5114538 -0.61897886 -0.42126727 -0.24428487 -0.16393042
0.31547034 0.4690001 0.5341732 0.366752 0.5658837 0.35797498 0.6768323 0.1588521
0.30910972 0.5009832 0.2690735 0.5842805 0.12116343 0.33348727 0.13917805 0.054740164
0.09895021 0.38783807 0.31786656 0.07612696 0.28504622 0.24755388 0.56245613 0.5046689
0.43105188 0.29522842 0.52718776 0.47664827 0.35784456 0.341104 0.29111415 0.54994905
0.027089657 0.39694405 0.45841238 0.23792003 0.4739245 0.5405112 0.495424 0.5769438
0.39342603 0.636732 0.28714204 0.42804042 0.590399 0.25374168 0.09834508 0.47411647
-0.040239953 0.048850443 0.22455278 0.35977012 0.19211902 0.3402729 0.57440966 0.48328784
0.38067615 0.39017722 0.36922494 0.53330886 0.4039331 0.48600835 0.33191258 0.37188187

conv1.bias f4 [6]
00000000: 2c63 123f 1466 0b3f a14c 1a3e 7ca2 1a3f
00000010: 3fd4 ed3d 7fc7 173e
0.57182574 0.54452634 0.15068294 0.6040418 0.11612748 0.14822195

conv2.weight f4 [6, 6, 3, 3]
00000000: 63d7 033f 649a 813e c35c 9e3e f9a8 debd
00000010: 876d 4a3d 081c 233e 5819 87be 640c 9f3d
00000020: 280f 8b3d 839b c5be fd3b e43b c4df 833e
00000030: 82c9 233e 4792 813e 6148 6c3e 30a3 9f3e
00000040: 79f2 8a3e f099 fe3d 9003 6e3e 4710 c43e
00000050: 2a87 1f3e 7029 7b3e 033c 6a3e 929b b73e
00000060: 4c4e 91bc ea4e 4b3d 09ed 893e a197 b53e
00000070: 0380 493e 5a00 ab3e 744d 3c3d cd33 aa3e
00000080: 0b83 493e e140 38be ecd9 743e 473c a43e
00000090: b82e fe3e 83da 9f3e 2a98 7a3e 015f 313d
000000a0: 902c 1c3e 4089 623e 834f 0ebe 340c 9a3d
000000b0: 43e1 823e 3f28 a13e e91c 573e bb0b 9f3e
000000c0: cb95 1abe 51aa 643e 04f1 a73e 51d6 94be
000000d0: ef2d e03d 9a3c 1c3e a80a c33c 4467 85be
000000e0: 0a38 dcbc f0c6 ce3e c3ec 4abe ff56 183e
000000f0: 7347 3b3e e14d 6e3e c03c 003f 8dc2 853e
00000100: 352d a93e f714 d43e 3b89 b03e f635 803e
00000110: 3cc5 e23d 3297 e73e 4c09 1a3e 330e 963d
00000120: a087 ca3d d94f 813c bde0 b1bd 136c 803e
00000130: e7e7 f3be 4f63 363d 0e78 533d 46ba c7bd
00000140: be1c 893d 5078 393c 3d43 1bbd 6f54 463e
00000150: 91e1 953e 0a0e a3bd 2325 cc3d 7e31 b63d
00000160: 756c 233e 7a06 e83e 8697 ba3d 8908 b2bd
00000170: 51cf 47be a121 3b3e 0673 74be 72be 73bd
00000180: 79ed f23c 9e87 dcbd 81c0 ca3e 033a 283e
00000190: 4efe dbbe 9ec3 a8bc 6dde 603b f26b 91be
000001a0: d2fa 263e 3a0e 90bd 04a5 7a3e e814 883e
000001b0: 08ac 963e 87a9 26be 49c5 8abd 2d9a d53e
000001c0: 543e 8f3e 65f2 3b3e fcc1 32bd 3dd7 7cbe
000001d0: 9650 103e b3fd 11bf c729 74be 1d67 82be
000001e0: 762b d0be 271a 81be 8334 433d 81c9 11be
000001f0: b58a b8bd 9cbf b1be 6d71 7d3e d9cc 78be
00000200: e7d7 13be 26a5 a03e 9ccb 743e c704 2a3e
00000210: 6f3c a23e 3d3c 1d3e bd80 d93e e52a 6c3e
00000220: 7795 ffbd d057 0b3e 2b49 df3e ac5e ef3d
00000230: f8b7 4e3d 999b 5f3e b517 ae3d 35f7 f23d
00000240: 9cb5 883e d59f 8ebe 2037 b33d 5416 f03e
00000250: 7b7e 853e a80c 2e3e 2cb3 3b3e 5301 423e
00000260: 807f b43e a7d2 053e ae86 98bb ea82 4ebc
00000270: 2fd3 db3e 04b9 273e 4b27 8e3e e01d 283d
00000280: 3f47 d0bd be44 453e cf83 0dbc 5548 ddbd
00000290: 6734 1f3e 4cd5 7fbe 1e08 2a3e 02db 7c3d
000002a0: 9343 413e f7f0 ec3e 1aaf 723e e0d9 bf3e
000002b0: 7a33 36be 3e21 d4be f809 4e3e 1e04 d13d
000002c0: f35a c3be 3489 a4be d152 92be 8a9c 82be
000002d0: 156c 6ebd 2b29 a5bd 7528 acbc c2ee c5be
000002e0: f654 12be 15b6 f03d 7d79 66bc 98dc da3e
000002f0: de45 2a3e 3b87 7dbe 6ea7 003e 337e 453e
00000300: 0719 a6bc 6d6c 253d 1282 5b3e 4f2b b83d
00000310: 971b 983e e3a7 6fbc dedc 41be 0567 9abd
00000320: cba0 963e 1076 abbe cec4 fb3c f820 863e
00000330: 927a 13bd c050 953e 574e 323e 0850 3dbc
00000340: b0b0 25bb 2fb1 9b3e 7136 2abe da18 273e
00000350: 932f 793d e5df 743d 6702 783e d5a0 f4bc
00000360: 8dcb d03d 07ab 9bbd 79ce 83be a2fa 29bc
00000370: e53c c73e 73d8 613e 893b 003f e4f1 993e
00000380: af6a e23d c64f 783e 0219 a93e ca9f d23e
00000390: b961 0c3e fee5 0f3e 3edc 533d a150 61be
000003a0: 50d6 fcbd 0d21 9ebd e661 ab3e 9928 35be
000003b0: d3bc 90be 7917 8b3c 57eb 103d 9a7f 6fbb
000003c0: 39d0 6b3e 2345 ab3d 90a9 b63d db17 303e
000003d0: baa3 b73d 3ffe 38be 68ff e63d 2435 613e
000003e0: 2b28 6c3d 8888 e03e 4fef aa3e 9bd9 e6bc
000003f0: 2733 823e 5d13 84be 02ce 62be d42f 03bd
0.5150053 0.25313103 0.30930147 -0.10872073 0.04942086 0.15928662 -0.26386523 0.07766035
0.0679 -0.3859521 0.006965159 0.25756657 0.15994838 0.25306913 0.23074485 0.3117919
0.27138117 0.12431705 0.23243546 0.3829367 0.15578905 0.24527526 0.22874455 0.35860878
-0.01773753 0.049635805 0.26938656 0.35467246 0.19677739 0.33398706 0.045972303 0.33242646
0.19678895 -0.179935 0.23911256 0.32077238 0.4964502 0.312214 0.24472108 0.043303493
0.15251374 0.22122669 -0.13897519 0.07521859 0.25562486 0.31476018 0.21007122 0.31063637
-0.15096204 0.22330596 0.32801068 -0.2906976 0.10946261 0.15257493 0.023808792 -0.26055348
-0.02688219 0.40386152 -0.1981688 0.14876936 0.18288974 0.23271896 0.500927 0.26124993
0.33042303 0.41422245 0.344797 0.2504117 0.11072776 0.4523254 0.15042609 0.07326927
0.0988915 0.015785145 -0.086854436 0.25082454 -0.47637865 0.0445283 0.051628165 -0.09752326
0.06694935 0.011320189 -0.03790592 0.19368146 0.29273656 -0.07961662 0.09968021 0.08896159
0.15959342 0.4531744 0.09110932 -0.08693034 -0.19512679 0.18274547 -0.23872003 -0.059507795
0.029654251 -0.107680544 0.39599994 0.1642838 -0.42967457 -0.02060109 0.0034312264 -0.28402668
0.16306618 -0.070339635 0.24477011 0.2657845 0.29428124 -0.16275607 -0.067759104 0.4171919
0.2797724 0.18354185 -0.04364203 -0.24691482 0.14093241 -0.5702774 -0.23844062 -0.25469294
-0.40658158 -0.25215265 0.0476575 -0.14237024 -0.09010831 -0.347165 0.247503 -0.24296893
-0.14437829 0.31375998 0.23905796 0.16603385 0.31686732 0.1535501 0.42481032 0.23063238
-0.1247968 0.13607717 0.4361051 0.11687979 0.050468415 0.218367 0.085006155 0.11863557
0.26701057 -0.27856317 0.08750749 0.46892035 0.2607306 0.16997015 0.18330067 0.18945818
0.35253525 0.13068639 -0.004654727 -0.0126044545 0.42934558 0.16379172 0.27764353 0.041044116
-0.10169839 0.19264504 -0.008637383 -0.10804812 0.15547334 -0.2498371 0.16604659 0.0617323
0.18873434 0.46277592 0.23699608 0.37470913 -0.17793074 -0.41431612 0.2012099 0.102058634
-0.38155326 -0.32135928 -0.2857881 -0.25510055 -0.058208544 -0.08064493 -0.021015385 -0.3865872
-0.14290223 0.117534794 -0.014067051 0.42746425 0.16628215 -0.24758618 0.1256387 0.19286422
-0.020275606 0.040386606 0.21436337 0.089926355 0.2970855 -0.01462743 -0.1893191 -0.07539181
0.2941955 -0.33488512 0.030733492 0.26197028 -0.036005564 0.2916317 0.17412697 -0.0115547255
-0.0025282316 0.30408618 -0.1662233 0.16318074 0.060836386 0.059783835 0.24219666 -0.029861847
0.10195074 -0.0760098 -0.25743464 -0.010374697 0.38913646 0.22055225 0.50090843 0.3006736
0.110555045 0.24249181 0.33026892 0.41137534 0.13709153 0.14052579 0.05172371 -0.22003414
-0.12345564 -0.07721148 0.33473128 -0.17691268 -0.2826906 0.016978966 0.035380688 -0.0036544562
0.2302865 0.08362796 0.0891906 0.171966 0.08966775 -0.18065737 0.112791836 0.21992928
0.057655495 0.43854165 0.33385703 -0.028179934 0.2542965 -0.25796023 -0.22148898 -0.032028034

conv2.bias f4 [6]
00000000: 9fc9 6e3e f2d5 513e cf7e 09be 40a6 19bd
00000010: def7 f63d 468e 103e
0.233191 0.2049177 -0.1342728 -0.037512064 0.12058996 0.14116773

fc1.weight f4 [10, 54]
00000000: 8913 533e c8b3 c63d e378 833e 8973 d13d
00000010: d648 663e c67d 01bd 0dbf b03d cfa6 e93d
00000020: 4feb b43d f13c 83bd 5b17 cabb 3dc0 7abd
00000030: 0ae2 b9bd 54bc 9bbd 61de d5bd 949f 323e
00000040: 7c7f 12be 7f33 693e 25d2 883d ac8a fbbd
00000050: 7287 febc 043d 1ebd 4ae5 15bc 1ae1 953e
00000060: 6b87 dd3d 70cb 223d c258 12be ebd3 123d
00000070: 362e 413e eeca 4ebe 77e3 c3bd 4295 5c3e
00000080: 55a4 a83d 4381 12be 7274 e83c 8d1f 77bc
00000090: b253 2a3e 7dc1 20be 6e24 96bd bd8b a9bd
000000a0: e6df 1cbd 4cca f43c deb8 a43e 623f a43c
000000b0: 7edf 6d3e ad3a 7b3c 1ccb e9bd 0f39 46be
000000c0: c898 813c b6e9 573e b6a2 bb3d 1705 65bd
000000d0: d632 763d 5f83 d9bd 53ab b53c b0a8 20bd
000000e0: d45b a8bd 2d6e 2c3e af2d 4d3e ba0d 863e
000000f0: 731d 503e c5ae 26bd d08f e53d 5217 463e
00000100: 82cf b6bd 8fbc 2b3d 6ae7 1f3c c7c8 57be
00000110: a814 bf3e be4f f9bd e415 383e b528 a73c
00000120: 2484 6f3c bfc1 5dbc 9447 a83d 4712 c7bc
00000130: 24a5 a13d b712 adbd 00ff fabd fcf6 6e3d
00000140: 6b73 843e 73e3 cb3d e2de 31bd 66cd c53d
00000150: 6e1d bc3d 3de3 8a3e 635a 00be 9f2f b7bd
00000160: c8a0 6c3e 2489 283d d94d 583e 75d8 243d
00000170: ac95 063e ecc4 533d c85c bb3e 00f8 03be
00000180: 69d8 44be d150 d53c 1102 35be 5c4f 583c
00000190: fbc5 433e 0455 f03d c1dc fdbb 5f89 773e
000001a0: 488f 623d 1167 4cbd 7061 de3d da51 52be
000001b0: a5e3 c53d 4853 17be 435b 24be 7d1e 893b
000001c0: 010b 213e 136c 03bc 20f3 2cbe 6be7 bebe
000001d0: 7e0f 44be 7a71 0b3e 793e 573e 9625 e6bd
000001e0: 40a2 15be 496f c23e bc3f a83c b87a 893e
000001f0: a085 1a3e 5d6f 0bbc f706 27bd 0b25 0abe
00000200: 0962 a3bc 7758 3f3e 15f5 5f3e 165c 4e3e
00000210: 96e5 82bd 3f3a 08be b31a 43bc 18fb d33b
00000220: 755f 943d 39fc e43d 426b cf3d 408b 613d
00000230: 35d9 3ebe 177f 84be 864a 213e 4d4c 343e
00000240: f600 183e e020 193e aee0 e53d 62d9 4abd
00000250: de35 73be a8f8 cfbd 5f8e f33e e442 203e
00000260: 9fca 063e a852 153e 34fe 17be 40ed 0abe
00000270: 6816 943e 663f 6a3e 8a59 2ebe 7d74 803c
00000280: e308 e73d 9e24 173e 87b6 0e3c 5729 ea3d
00000290: b87d e0bd 4683 353e 4c24 063e cd19 5b3e
000002a0: 5a72 103e 8764 913d 18cb 8ebd 2c6c 9c3d
000002b0: 182f 253e 104a 313e 07e7 1bbb a0c1 a43e
000002c0: 9136 adbd dd18 bdbd 9acf bfbd f40b 34bd
000002d0: 19d2 fb3d 61f5 92bd d14f 913d 1846 b23d
000002e0: 7e7d c53d fc60 873e 84a6 22bc 3bb4 a33e
000002f0: 667a c3bd d129 7f3d 1cad 2fbb 6225 893e
00000300: efba 793e 16ed 01be 9022 923e 956a 713d
00000310: cea2 fc3c bec4 2d3e ef79 d23d 6ac6 cd3d
00000320: 12ad 6e3e 14e6 393e 86ec 2fbe f52f 2c3e
00000330: b2a1 5e3d 2a1c 93bc 921e 853d bfcf 093e
00000340: 7913 5b3d fb96 9f3d 8896 173e 6e7d 0fbe
00000350: 71b5 593e 94a0 9a3c 8ad9 b83d 5079 163e
00000360: 5744 aebd e36a 04bc 3555 b83d 6cdb 42bc
00000370: 3737 2cbe 8dac 283e ff7a 893d 15f0 5c3e
00000380: e7dd 693e befc 40bd eada a4bc 18e9 9d3d
00000390: 5228 113e f1a0 313e 9acc 933c 53ca 32bc
000003a0: 83d4 4c3a e854 fdbd f44c 243e 8bcb 5e3d
000003b0: 7c6c b4bd a9be 023d 0714 483e 8c75 273d
000003c0: 50f7 113e cee0 1d3d 7f73 4c3e f65b 423d
000003d0: 6d71 313e 0273 56be 8440 653e 51ca f4bd
000003e0: 48f4 2b3e 421c 3b3b bdb0 8bbe 6bc8 63be
000003f0: 818d 01be aa49 6bbc d85c 3fbd 414c 0e3e
0.20612921 0.09702259 0.25678167 0.10227115 0.22488722 -0.031614088 0.0863019 0.11408769
0.08833944 -0.06408108 -0.006167335 -0.06121849 -0.09076317 -0.0760428 -0.10442806 0.17443687
-0.14306444 0.2277355 0.06680707 -0.12282309 -0.031070445 -0.038632408 -0.009148905 0.292733
0.108168446 0.039744794 -0.14291671 0.035846632 0.18865284 -0.20194599 -0.0956487 0.21541312
0.08234469 -0.14307122 0.028375838 -0.015083206 0.1663349 -0.1569881 -0.07331167 -0.08278606
-0.038299464 0.029881619 0.32172292 0.020049755 0.23229787 0.015333814 -0.11415693 -0.19357704
0.015819922 0.21085247 0.09161894 -0.055913057 0.060107075 -0.1062076 0.02217642 -0.039223373
-0.0822064 0.16838904 0.20036958 0.26182348 0.20323734 -0.040694017 0.11209071 0.19344833
-0.08926298 0.04192787 0.009759763 -0.21072684 0.37320447 -0.12173413 0.179771 0.020405153
0.014618907 -0.013534962 0.082167774 -0.024300708 0.07892826 -0.08450835 -0.12255669 0.05834101
0.25869307 0.09955492 -0.04342545 0.09658317 0.09185301 0.27126494 -0.1253448 -0.0894463
0.23108208 0.041146412 0.21123447 0.040245492 0.13143033 0.05170147 0.36594224 -0.12887573
-0.19223179 0.026039513 -0.1767657 0.0132025145 0.19118492 0.117349654 -0.007747263 0.24173497
0.055312425 -0.04990298 0.108584285 -0.20539036 0.096625604 -0.14777863 -0.16050439 0.0041845427
0.15726854 -0.008021372 -0.1688962 -0.37285933 -0.19146535 0.13617507 0.21019925 -0.11237638
-0.14612675 0.3797553 0.020538203 0.2685144 0.15090036 -0.008510438 -0.040778127 -0.13490693
-0.019944208 0.1868609 0.21870835 0.20152315 -0.06391446 -0.13303469 -0.011908221 0.0064691417
0.072447695 0.1118092 0.1012788 0.05506444 -0.18637545 -0.25878212 0.15751085 0.17607231
0.14844117 0.14953947 0.11224495 -0.04952372 -0.23751017 -0.10154849 0.47569558 0.15650517
0.13163231 0.14582312 -0.14843065 -0.13567066 0.28923345 0.22875747 -0.17026344 0.015680546
0.11280992 0.14760062 0.00871051 0.11433666 -0.10961479 0.17725858 0.13099784 0.21396561
0.14106122 0.07099252 -0.06972331 0.0763782 0.16131246 0.17313409 -0.0023788826 0.32178974
-0.08457673 -0.09233258 -0.09365769 -0.043956712 0.12295932 -0.071757086 0.07095302 0.087047756
0.09643076 0.2644118 -0.009927396 0.31973442 -0.0954483 0.06229574 -0.0026806062 0.26786333
0.24387716 -0.12688097 0.28541994 0.058939535 0.03083935 0.16969582 0.10277163 0.1004761
0.23308209 0.18154174 -0.1718007 0.16815169 0.054353423 -0.017957766 0.064999714 0.13458155
0.053485367 0.07792469 0.14803517 -0.14012691 0.2126062 0.018875398 0.09025867 0.14694715
-0.085091285 -0.008082124 0.09000627 -0.011893135 -0.16817938 0.16472073 0.06712913 0.21575959
0.22838555 -0.047116034 -0.020123918 0.07710475 0.14175537 0.1734655 0.018041898 -0.010912496
0.0007813649 -0.1236971 0.1604498 0.054393332 -0.08809754 0.03192011 0.1953889 0.040883586
0.14254498 0.03854447 0.19965933 0.047450982 0.17328425 -0.2094231 0.22387892 -0.11952651
0.16792405 0.0028550779 -0.27283278 -0.22244422 -0.12651636 -0.014360825 -0.046719402 0.13896276

fc1.bias f4 [10]
00000000: c3e0 2a3d 6374 86bd 021c 39bc 2ea6 6ebc
00000010: d7a2 6bbd e86f bb3d 8497 563c 5695 07be
00000020: 5662 a23d 25ee 0b3e
0.041718256 -0.06565168 -0.0112981815 -0.0145659875 -0.057528343 0.09152204 0.013097648 -0.13240561
0.07928912 0.13665064

fc2.weight f4 [10, 10]
00000000: 8fd8 a5be ba6c d7be 0b9c 70be c3ef c33e
00000010: a487 d83d f2af 4bbe 3ce4 983d b4b8 c33d
00000020: 963b 96bd b949 ba3d b291 2c3e fb54 a33e
00000030: e933 0cbf 9e5a c7be e435 b8be 08a0 bf3d
00000040: ca3f ce3e 0259 fcbe c9a6 5abd 2338 bc3d
00000050: 26cf 10be 073a 483e ef5a 2cbe 171b 76be
00000060: 4500 9b3e e260 063e 0c10 a23e aac4 d7bb
00000070: 6e55 653d d7fd 02bf 8a33 823e 4240 4b3e
00000080: 9b37 133e 8c0f 213e dd39 b9bd e5a9 e0bd
00000090: 63ab 50be 8f24 44be 11dd 60be a994 12bf
000000a0: 6b5b 2c3c eb30 85bd ad9d ce3e af85 e3bc
000000b0: 3a8b 83be 0fd4 883e a2bd 85bd 4b95 f03d
000000c0: f38f 9f3c 5cee 353d 7288 d7bd c2bc 803d
000000d0: 1458 87bc a5e3 423e 23c9 01bc 0524 75bc
000000e0: 5a82 8fbe ce4b d6be a3f3 863e 25e0 163e
000000f0: 2d1c c33e 263b d5be 366c f1be 9dde 7dbe
00000100: 1eb7 993e f4cf 893e e9a0 1f3d 0b7a 823e
00000110: 7a4d 483e f301 623e 90c1 193e cd9d 3abe
00000120: e191 9d3e fb10 103c ed83 e8be 54f9 e2be
00000130: e8cc ea3e 7fea f9bd d437 e63d 1b07 013e
00000140: 541b 89bc d584 ae3e 089a 7fbe 2aa4 d2bd
00000150: 2d39 02be 90dc bebe f80e 92be 2d66 843e
00000160: 5768 1dbd 82a1 663e cf5c d73d 3ea8 c4bd
00000170: a51e b23e 4892 25be e8ae 283d 35b2 d7be
00000180: a1a8 4e3d 504b e1bd 6e9a cebe 3534 ce3e
-0.32391784 -0.4207514 -0.23497026 0.3826886 0.105727464 -0.19891337 0.07465407 0.09556714
-0.07335584 0.09096093 0.16852453 0.31900772 -0.5476671 -0.38936323 -0.35978615 0.093566954
0.40283042 -0.49286658 -0.053381715 0.09190395 -0.14141521 0.19553386 -0.16831563 -0.24033771
0.30273643 0.13122895 0.31652868 -0.0065847235 0.055989675 -0.5116858 0.25429946 0.19848731
0.1437668 0.15728587 -0.0904424 -0.10969905 -0.20377879 -0.19154571 -0.2195933 -0.5725809
0.010519843 -0.06503471 0.40354672 -0.027773706 -0.2569216 0.26724288 -0.0653031 0.117472254
0.01947782 0.04441677 -0.10524072 0.06286003 -0.016521491 0.19032152 -0.00792149 -0.014962201
-0.28029138 -0.4185471 0.26357755 0.14733942 0.38107434 -0.4164669 -0.4715287 -0.24791951
0.3002252 0.26916468 0.038971815 0.25483736 0.19560805 0.22071056 0.15015244 -0.18224259
0.3077536 0.008793111 -0.4541315 -0.44330847 0.45859456 -0.1220293 0.11241117 0.12600367
-0.016736664 0.34085718 -0.24961102 -0.10285218 -0.12717123 -0.3727765 -0.28527045 0.25859204
-0.038429584 0.22522548 0.10515749 -0.09602402 0.34789005 -0.16169083 0.04118243 -0.4212815
0.050453786 -0.11000693 -0.40352196 0.40274206

fc2.bias f4 [10]
00000000: 7e69 253e c7cb ba3e 2943 afbe f952 d33e
00000010: 3b82 a8bc 0fd3 fd3e cd23 ecbd 1377 e1bd
00000020: 0960 2fbe 630c c2bd
0.16153523 0.36483595 -0.34230927 0.4127424 -0.020569911 0.49575087 -0.11530266 -0.1100904
-0.17126478 -0.09475019
