models/mnist_FC1/model.pth (torch, 171351 bytes, 6 tensors)

fc1.weight f4 [50, 784]
6.21791e-40 6.18713e-40 5.03136e-40 -4.7297e-41 -6.21197e-40 -5.98552e-40 -5.02702e-40 3.0572e-41
-6.3773e-41 5.88883e-40 1.55574e-40 4.53321e-40 -5.18521e-40 5.1097e-41 6.04447e-40 4.50005e-40
-5.5703e-41 3.70069e-40 6.20669e-40 5.55871e-40 1.31838e-40 -4.0947e-41 4.95306e-40 -2.11483e-40
-5.31001e-40 1.06905e-40 3.36342e-40 6.0239e-40 -4.1991e-41 2.82984e-40 -4.1372e-41 4.06179e-40
-5.57662e-40 4.37963e-40 -3.85765e-40 -2.9674e-41 -5.72557e-40 -3.55061e-40 -2.46068e-40 -5.4756e-40
6.01709e-40 2.3664e-40 3.3967e-41 2.4584375e-15 -7.76732e-15 1.5898905e-15 -2.4382968e-15 -5.50629e-40
5.43873e-40 -6.1336e-40 -5.00035e-40 -1.30607e-40 5.4828e-40 4.98373e-40 5.37221e-40 1.5916e-41
1.48008e-40 5.38965e-40 -1.2392e-41 5.02776e-40 -5.14599e-40 5.61835e-40 -2.6421975e-26 -1.4811026e-25
-1.0291819e-15 -1.5779723e-15 5.8359215e-15 1.2934541e-15 9.5631434e-15 -2.2284963e-15 -6.7072537e-15 -1.6055276e-14
7.623572e-16 1.3284298e-14 6.3117312e-15 -1.6520503e-15 2.6100863e-15 3.702122e-15 -5.9901455e-16 -4.2635827e-25
2.631989e-25 5.86152e-40 -4.21421e-40 4.87202e-40 5.06824e-40 5.94874e-40 -6.02305e-40 5.1178e-41
-9.2276e-41 -2.6421975e-26 3.0888504e-25 -6.219646e-25 4.4078866e-15 6.9816013e-15 -9.473936e-15 1.6041732e-14
-2.2021804e-15 -6.117944e-15 2.5067776e-14 4.7027947e-14 -1.1398909e-14 1.7150364e-14 -1.4954143e-14 1.4020141e-14
7.581084e-15 -2.3223078e-16 -4.583624e-15 -4.9501325e-15 4.042176e-25 3.35761e-40 -1.3262e-41 -6.0498e-40
-7.266e-42 4.95694e-40 5.04418e-40 3.98255e-40 5.7921e-40 2.0015144e-25 -2.4776981e-24 2.0409013e-15
-5.4117435e-15 6.7497553e-15 4.8379866e-14 2.1521328e-13 -2.7491459e-13 1.4203116e-11 4.3142976e-12 -2.0577752e-12
-2.9253357e-11 5.3964853e-12 -9.866706e-14 -9.6843e-15 -4.204427e-15 -3.7879202e-16 3.2384484e-15 -1.4990718e-14
-8.203618e-15 -6.7318604e-28 -2.0211e-41 -5.2065e-40 6.12171e-40 -6.6976e-41 5.38442e-40 5.9984e-41
-3.279071e-25 -7.2515516e-17 1.7310651e-15 -2.045376e-15 -2.3308238e-14 -6.408281e-14 5.094852e-13 -4.6316426e-11
-3.3257945e-11 -5.2475313e-09 -1.7104446e-09 5.558942e-09 1.3496958e-08 1.8581494e-08 -2.693726e-09 -1.0072249e-11
-1.613502e-12 2.4227438e-15 -3.0271077e-15 -9.574649e-16 -1.2763967e-14 -1.4506977e-15 1.3881e-41 5.8617e-40
-5.74232e-40 1.26676e-40 5.30094e-40 1.699907e-15 -3.907007e-15 -1.887615e-15 2.8443227e-15 -7.621999e-15
9.6535864e-14 4.2323712e-15 -1.5769545e-11 -3.288275e-09 1.167585e-07 9.59398e-08 1.14833625e-07 9.97671e-08
-1.6095055e-07 -1.1582733e-07 8.155001e-08 -2.2500428e-09 -5.5299734e-11 7.4661035e-13 2.27956e-15 2.0562455e-16
7.809879e-15 1.1768807e-15 -2.9890497e-25 5.63932e-40 -3.86728e-40 -8.42e-42 -4.04654e-40 3.9205915e-15
2.731373e-15 2.0819663e-15 -1.9491666e-14 6.6157754e-15 -5.512445e-13 2.8176315e-12 -9.475445e-10 1.0709063e-07
-7.3825265e-07 -1.2535994e-06 7.4396894e-08 1.2911893e-07 1.32914675e-08 -2.7057016e-08 1.1358766e-07 3.4846828e-08
1.388451e-10 5.4772137e-12 -1.550188e-14 2.32969e-15 5.6380978e-15 1.5188722e-16 2.706304e-15 -3.98815e-40
-4.95506e-40 8.9613e-41 -2.2178567e-15 1.0558763e-14 -3.4670492e-15 1.059464e-14 -2.159541e-14 5.0266096e-13
8.7130875e-12 3.9931444e-10 1.6920941e-08 -3.0243376e-07 -7.6514965e-07 1.4849918e-07 -1.0720687e-08 -8.175006e-09
-9.689368e-09 6.340784e-08 1.2135341e-07 7.430921e-08 4.914014e-10 2.0915127e-10 2.9755492e-13 -1.7088251e-14
-1.0778566e-15 2.9844393e-15 -4.6793806e-16 -5.83618e-40 -5.66368e-40 -4.4511e-41 3.3667512e-15 1.7425177e-15
00000000: 4dc5 0600 b8bc 0600 8a7a 0500 d883 0080
00000010: a5c3 0680 8584 0680 5479 0580 3955 0000
00000020: c6b1 0080 9169 0600 adb1 0100 adef 0400
00000030: 6da5 0580 708e 0000 f494 0600 6ee6 0400
00000040: 479b 0080 9a07 0400 2cc2 0600 8b0d 0600
00000050: 836f 0100 2572 0080 b664 0500 874d 0280
00000060: 37c8 0580 022a 0100 96a9 0300 388f 0600
00000070: 0e75 0080 d814 0300 5473 0080 436c 0400
00000080: 8912 0680 ddc4 0400 5b33 0480 b852 0080
00000090: 0e3c 0680 c4dd 0380 f0ad 0280 60f6 0580
000000a0: 528d 0600 a893 0200 b05e 0000 2b26 3127
000000b0: 71ec 0ba8 9b20 e526 a3b2 2fa7 eefe 0580
000000c0: 19ec 0500 ccad 0680 e571 0580 146c 0180
000000d0: 62f8 0500 436d 0500 8ed9 0500 5e2c 0000
000000e0: 969c 0100 6ade 0500 8b22 0080 8979 0500
000000f0: 7e9a 0580 2b1e 0600 d5d5 0295 045a 3796
00000100: 1c52 94a6 e768 e3a6 e042 d227 0968 ba26
00000110: 3746 2c28 8094 20a7 7fa7 f1a7 f29c 90a8
00000120: 08bc 5b26 034f 6f28 7267 e327 e615 eea6
00000130: 9813 3c27 0c62 8527 79a7 2ca6 95f3 0397
00000140: 88e9 a216 f461 0600 c096 0480 1f4e 0500
00000150: d284 0500 447a 0600 fb8e 0680 aa8e 0000
00000160: 3a01 0180 d5d5 0295 ca30 bf16 1d7d 4097
00000170: 94cf 9e27 e889 fb27 d1aa 2aa8 b77d 9028
00000180: 0faf 1ea7 136c dca7 5bca e128 88cb 5329
00000190: 3058 4da8 0c7a 9a28 e8b1 86a8 7d90 7c28
000001a0: 9491 0828 37df 85a5 7824 a5a7 ea58 b2a7
000001b0: d632 fa16 f7a7 0300 f824 0080 7096 0680
000001c0: 4114 0080 cb65 0500 1d7e 0500 2c56 0400
000001d0: 9a4e 0600 86c6 7716 deb3 3f98 fc0f 1327
000001e0: 86fa c2a7 812f f327 30e2 5929 014f 722a
000001f0: 5ec3 9aaa 26dd 792d bdcb 972c 95cd 10ac
00000200: 5aa8 00ae 38df bd2c b02d dea9 f374 2ea8
00000210: ff7a 97a7 d65b daa5 d45a 6927 3e06 87a8
00000220: 83c8 13a8 5757 5592 5738 0080 5cab 0580
00000230: 7caa 0600 b4ba 0080 f5dc 0500 36a7 0000
00000240: f4f6 ca96 9b35 a7a4 0879 f926 8762 13a7
00000250: 23f1 d1a8 3a4d 90a9 4768 0f2b a9b3 4bae
00000260: 1e45 12ae c64d b4b1 eb14 ebb0 f900 bf31
00000270: 40e0 6732 239d 9f32 871c 39b1 6031 31ad
00000280: 8914 e3ab bc93 2e27 4820 5aa7 38fc 89a6
00000290: 68ef 65a8 4c11 d1a6 b226 0000 0162 0600
000002a0: ba40 0680 1f61 0100 b0c5 0500 80fb f426
000002b0: c7c3 8ca7 5a04 08a7 7ef4 4c27 444e 09a8
000002c0: 2361 d929 bc7c 9827 dcb5 8aad f2f7 61b1
000002d0: aabc fa33 7607 ce33 749a f633 8b3f d633
000002e0: c0d1 2cb4 c0bc f8b3 9820 af33 2c9f 1ab1
000002f0: f735 73ae f226 522b 7642 2427 a811 6d25
00000300: b6b0 0c28 3c9b a926 6203 b996 0324 0600
00000310: 0a36 0480 7917 0080 0368 0480 1341 8d27
00000320: f0d0 4427 8005 1627 b990 afa8 c25b ee27
00000330: 5a29 1bab f045 462c c23a 82b0 b2f9 e533
00000340: 562c 46b5 5941 a8b5 20c4 9f33 f1a3 0a34
00000350: 7e58 6432 026b e8b2 7aed f333 7eaa 1533
00000360: 6ca9 182f 5bb6 c02c e7a0 8ba8 32df 2727
00000370: 4622 cb27 321d 2f25 7f02 4327 bc57 0480
00000380: 4565 0580 cef9 0000 3cd0 1fa7 b335 3e28
00000390: c5d3 79a7 27db 3e28 a083 c2a8 8a7c 0d2b
000003a0: 4248 192d 8386 db2f 8b59 9132 2e5e a2b4
000003b0: af64 4db5 2573 1f34 142e 38b2 0e72 0cb2
000003c0: 4b76 26b2 d42a 8833 5f4d 0234 ec93 9f33
000003d0: 4d13 0730 d9f6 652f 2f82 a72a d3ea 99a8
000003e0: e455 9ba6 300d 5727 bcdf 06a6 e45a 0680
000003f0: ce2a 0680 147c 0080 9999 7227 8e1f fb26

fc1.bias f4 [50]
-4.446503e-05 -0.058493245 -0.009365049 0.21534646 -0.03967934 -0.0003375744 -0.002052884 -5.7466437e-05
0.5843574 0.33272833 -0.0038274964 0.12309779 0.030737767 -0.11239667 -0.15593503 -0.03390797
-0.0006155152 0.25550103 -0.010662338 -9.097899e-06 -0.0058639664 0.038126547 -0.0016731264 -6.9393245e-06
-0.16057645 -0.00017943449 0.50071853 -0.11453438 0.18878192 0.13667277 0.33468232 0.0002502482
0.101090826 0.44915268 -0.020592202 0.49757317 -0.009884866 -0.005050662 -0.015577034 0.26813075
-0.00017791714 -0.03133357 -0.033506926 -0.0013499374 -0.0019807585 -0.00010073601 -0.0007379967 -0.00025280396
0.17465666 -5.619483e-05
00000000: f67f 3ab8 9d96 6fbd dd6f 19bc c883 5c3e
00000010: ce86 22bd 78fc b0b9 ae89 06bb 1e08 71b8
00000020: 7298 153f 5e5b aa3e bcd6 7abb b21a fc3d
00000030: c5cd fb3c 3a30 e6bd 6fad 1fbe 15e3 0abd
00000040: 875a 21ba 08d1 823e 16b1 2ebc 2ea3 18b7
00000050: 8426 c0bb 952a 1c3d ce4c dbba 58d8 e8b6
00000060: 276e 24be 9426 3cb9 172f 003f 0091 eabd
00000070: 0c50 413e f2f3 0b3e 7b5b ab3e bf33 8339
00000080: b508 cf3d 57f7 e53e fab0 a8bc e9c1 fe3e
00000090: 22f4 21bc 0680 a5bb d136 7fbc 6f48 893e
000000a0: 458f 3ab9 a157 00bd 8f3e 09bd 62f0 b0ba
000000b0: 9dcf 01bb 3c42 d3b8 1f76 41ba c68a 84b9
000000c0: 32d9 323e bdb2 6bb8

fc2.weight f4 [50, 50]
2.0067905e-14 -0.040731452 -0.10858001 -0.041851494 -0.43910637 -5.4314e-05 -2.0812186e-05 -4.050126e-14
0.028486108 -0.13452588 0.0003511344 -0.24423137 -0.048296154 -0.121326014 -0.28347036 -0.106671184
-2.2364947e-08 -0.08798421 -0.003589152 -2.9423304e-06 -0.0046321554 -0.049964007 -0.00019069167 2.9626673e-07
-0.19433855 -2.6994942e-07 0.24258257 -0.189128 -0.108793385 -0.06566632 0.26272452 0.0045744153
-0.03959551 -0.08361858 -0.041831803 -0.01659968 0.003021764 -0.0114581855 -0.02476621 -0.00079987774
1.7456328e-05 -0.033365123 -0.15979315 1.5456912e-08 -0.0017826955 1.5589814e-08 -2.5168129e-07 -0.0007133657
0.2415668 3.6636006e-06 -5.990742e-09 -0.051516652 0.15204322 -0.045837674 -0.032466847 -3.3637346e-16
4.930171e-09 1.2729928e-13 -0.023059092 -0.04806125 3.9015913e-06 -0.07078403 0.08308248 0.00089026586
-0.04375612 0.10644854 -3.316326e-09 -0.0076952097 -0.0008469703 6.695929e-12 6.637352e-05 -0.026745534
6.676357e-08 4.228515e-09 -0.08278216 5.80475e-08 -0.0308984 -0.002748107 -0.035998587 0.17100237
0.011146284 -4.179883e-05 -0.04417845 -0.007659737 0.0929152 -0.050022658 -0.0049010203 0.0038116733
0.004248584 0.0022737414 -4.344517e-11 0.09286834 0.15741633 -4.6888133e-09 0.0017858129 -2.2398346e-07
1.9391711e-08 0.0011813854 0.007921599 1.2846829e-07 -1.64511e-40 -4.0549455e-10 -2.3363188e-13 2.7161514e-13
-2.9743992e-13 -1.91839e-40 -6.16243e-40 5.20508e-40 1.326597e-07 7.864196e-09 3.41e-41 -2.2283654e-08
-2.9120967e-15 -0.00010463866 -9.534992e-13 4.6182828e-14 -4.80968e-40 -4.1231878e-13 8.367e-41 1.97273e-40
-3.0739e-41 -5.667289e-05 -5.82951e-40 6.03157e-40 -1.7677886e-12 7.09503e-32 6.875911e-12 -1.2384135e-10
4.145596e-12 -1.1918456e-14 -2.4514413e-10 -6.03091e-40 -0.00045502206 -0.0008810456 2.3127344e-14 2.5189914e-07
-5.11101e-40 -4.12052e-40 5.24444e-40 -0.0010590411 -4.87435e-40 2.667833e-14 4.566774e-13 -5.39954e-40
-6.9961e-41 -2.8440513e-16 -9.586664e-14 -3.67353e-40 -2.692901e-12 -5.51213e-40 3.6015066e-24 2.2595657e-08
-4.939581e-08 1.8748411e-05 -1.2164574e-09 5.32942e-40 -8.0292e-41 -8.708e-42 -0.002330255 -0.0007219564
3.40993e-40 -4.149913e-06 -3.717062e-09 -0.0039680223 3.7981026e-06 -1.0558392e-07 5.9338e-41 -2.4509678e-08
-3.486e-41 -1.4928e-41 -3.96503e-40 -0.0066214977 3.21968e-40 -5.75558e-40 1.310714e-06 4.95901e-40
-3.1894146e-05 -0.001750468 4.2776907e-07 -3.9527817e-09 1.1290155e-06 -4.98048e-40 -0.00455654 -0.007906318
2.3605058e-09 -0.0005118798 5.13688e-40 -5.4734e-40 -8.7798e-41 -0.0065962146 -3.12988e-40 -1.7998513e-09
-4.7077955e-09 2.00555e-40 -1.93842e-40 -3.14122e-40 5.06746e-40 5.83506e-40 -2.6108313e-09 5.35435e-40
-1.1475484e-08 0.17997634 0.07891438 0.049313057 0.009431469 3.900428e-09 -4.601216e-08 -1.8918537e-07
-0.080662526 -0.037786745 0.0031005314 0.2995606 0.040890362 -0.0034039144 0.03536307 0.05701077
-4.5327585e-08 0.043776754 0.0057393922 -0.0001708799 -0.006868389 -0.00019293655 -1.8658616e-08 1.8278931e-07
0.012907594 7.895945e-08 -0.049796347 0.038910903 0.17275171 0.07147939 -0.027472835 -0.00046296374
0.004246927 -0.035682667 0.026089985 -0.050252374 0.012203312 -0.008958922 -0.0025669306 -0.009339336
-8.024389e-07 0.020330567 0.052852314 -1.5541418e-06 0.00602313 1.7038588e-09 1.3344378e-05 -0.0021141623
-0.0041628755 5.0657553e-07 -0.0016248788 7.0347e-41 2.44698e-40 -0.09723004 -0.052555304 -0.0054228613
00000000: 70c1 b428 06d6 26bd 325f debd 796c 2bbd
00000010: 8dd2 e0be 37cf 63b8 d495 aeb7 c666 36a9
00000020: b35b e93c 27c1 09be 7618 b839 ca17 7abe
00000030: 30d2 45bd c679 f8bd 0723 91be 6c76 dabd
00000040: 0a1d c0b2 1131 b4bd fa37 6bbb da74 45b6
00000050: 56c9 97bb 0fa7 4cbd 68f4 47b9 970e 9f34
00000060: af00 47be 91ed 90b4 9167 783e c5aa 41be
00000070: 11cf debd 107c 86bd d483 863e fae4 953b
00000080: e72e 22bd 3840 abbd d357 2bbd 0dfc 87bc
00000090: ca08 463b 1dbb 3bbc 82e2 cabc e3ae 51ba
000000a0: 2e6f 9237 dea9 08bd d1a0 23be 1cc6 8432
000000b0: 56a9 e9ba 5dea 8532 d01e 87b4 2901 3bba
000000c0: 4a5d 773e 2edc 7536 20d7 cdb1 2003 53bd
000000d0: 38b1 1b3e 49c0 3bbd f5fb 04bd f6e7 c1a5
000000e0: 3e66 a931 8553 0f2a 6ce6 bcbc e0db 44bd
000000f0: 6aea 8236 38f7 90bd 2627 aa3d bb60 693a
00000100: 9e39 33bd b101 da3d 6de5 63b1 1928 fcbb
00000110: 3707 5eba 9197 eb2c 0332 8b38 7319 dbbc
00000120: a95f 8f33 694a 9131 b189 a9bd e74f 7933
00000130: a41e fdbc 9619 34bb 4173 13bd 3f1b 2f3e
00000140: e79e 363c 2751 2fb8 76f4 34bd 88fe fabb
00000150: 534a be3d 8fe4 4cbd bd98 a0bb 44cd 793b
00000160: b537 8b3b 0d03 153b ea12 3fae c231 be3d
00000170: bf31 213e 3d1b a1b1 f011 ea3a 1b80 70b4
00000180: d392 a632 b7d8 9a3a 98c9 013c 18f1 0934
00000190: 97ca 0180 49ec deaf e785 83aa dee7 982a
000001a0: 9c71 a7aa c516 0280 d6b5 0680 f7aa 0500
000001b0: 3871 0e34 1a1b 0732 0f5f 0000 466a bfb2
000001c0: b4d6 51a7 7471 dbb8 6e31 86ab 2dfd 4f29
000001d0: be3c 0580 661d e8aa 3de9 0000 eb25 0200
000001e0: b055 0080 0db4 6db8 0859 0680 5b91 0600
000001f0: 4ccb f8ab 9032 b80b b3ec f12c 3e2a 08af
00000200: 36dc 912c 2db4 56a8 f8c4 86af 2c91 0680
00000210: 0790 eeb9 f8f5 66ba 0650 d028 c13c 8734
00000220: be90 0580 a27c 0480 f0b5 0500 86cf 8aba
00000230: c54e 0580 0a4c f028 138b 002b 2ce1 0580
00000240: 06c3 0080 caf2 a3a5 5bdf d7a9 0800 0480
00000250: fe7e 3dac 8f00 0680 9853 8b18 6018 c232
00000260: 4427 54b3 e845 9d37 4a30 a7b0 a0cd 0500
00000270: d2df 0080 4618 0080 31b7 18bb ad41 3dba
00000280: 8db6 0300 7b3f 8bb6 3f6f 7fb1 2f06 82bb
00000290: e8e2 7e36 60bd e2b3 69a5 0000 5a89 d2b2
000002a0: 2d61 0080 9d29 0080 4a51 0480 26f9 d8bb
000002b0: 8481 0300 6c44 0680 caeb af35 5f66 0500
000002c0: 14c6 05b8 f66f e5ba 22a8 e534 09d1 87b1
000002d0: ad88 9735 5b6c 0580 074f 95bb 8089 01bc
000002e0: 7536 2231 ac2f 06ba f497 0500 c3f5 0580
000002f0: bff4 0080 0f25 d8bb 7c68 0380 a35e f7b0
00000300: 35c2 a1b1 112f 0200 5a1c 0280 a56b 0380
00000310: 9a84 0500 945a 0600 3b6a 33b1 93d4 0500
00000320: b625 45b2 b84b 383e dd9d a13d 7dfc 493d
00000330: 7386 1a3c 8704 8631 e89e 45b3 e122 4bb4
00000340: 6532 a5bd 46c6 1abd 4932 4b3b 0260 993e
00000350: a77c 273d 3514 5fbb ded8 103d 2084 693d
00000360: 35ae 42b3 414f 333d 8311 bc3b 392e 33b9
00000370: 3910 e1bb 034f 4ab9 bb46 a0b2 be44 4434
00000380: 607a 533c 6b90 a933 41f7 4bbd 0a61 1f3d
00000390: d3e5 303e c963 923d b60e e1bc f1b9 f2b9
000003a0: ce29 8b3b fd27 12bd aaba d53c 6fd5 4dbd
000003b0: 66f0 473c 71c8 12bc f339 28bb 0404 19bc
000003c0: 2e67 57b5 4a8c a63c ab7b 583d e897 d0b5
000003d0: ad5d c53b 342d ea30 abe1 5f37 c28d 0abb
000003e0: bb68 88bb 9bfb 0735 e3f9 d4ba 19c4 0000
000003f0: 1eaa 0200 8b20 c7bd 3b44 57bd 42b2 b1bb

fc2.bias f4 [50]
0.13942936 0.053424593 -0.00032300796 -0.005952165 -0.18064696 -0.29400456 -0.010794835 0.1224086
0.0080963755 0.113955855 0.16653088 0.18809952 0.1966888 -0.30168766 0.051354263 -0.1563125
-0.00995973 0.08360173 -0.0005444711 0.21384431 0.04087615 0.13169682 0.037920084 0.024159595
-0.33675 0.07610812 0.06404964 -0.0059228446 0.14334539 -0.002525403 0.13579075 -0.39829662
-0.010510131 0.19189385 0.14663687 -1.8887356e-05 0.13349812 0.17799388 0.036797628 0.15176724
0.06251331 0.22007062 0.6237966 -0.0074648256 0.2213963 3.0728313e-06 -0.5666839 0.1653167
0.055006847 0.1446234
00000000: 92c6 0e3e bfd3 5a3d 6559 a9b9 610a c3bb
00000010: 84fb 38be c487 96be d2dc 30bc 5cb1 fa3d
00000020: a9a6 043c b061 e93d 1287 2a3e 299d 403e
00000030: ca68 493e ce76 9abe d958 523d 6210 20be
00000040: 232e 23bc 6237 ab3d d6ba 0eba 01fa 5a3e
00000050: c06d 273d 88db 063e 1752 1b3d 58ea c53c
00000060: 7f6a acbe 93de 9b3d 752c 833d 6c14 c2bb
00000070: 22c9 123e 3b81 25bb bb0c 0b3e 89ed cbbe
00000080: af32 2cbc d27f 443e fa27 163e 4a70 9eb7
00000090: bbb3 083e 0744 363e 1cb9 163d df68 1b3e
000000a0: fa06 803d 315a 613e 22b1 1f3f 7f9b f4bb
000000b0: b6b5 623e d736 4e36 3212 11bf c848 293e
000000c0: dc4e 613d 2818 143e

fc3.weight f4 [10, 50]
-0.0018314087 0.069139116 -8.708729e-05 -0.0033399388 -0.016539628 -0.64535165 0.0052941497 0.016444111
-0.00012853461 0.2701933 0.07667116 0.3534931 0.0011876031 -0.63162917 -0.002176761 -0.022778599
-0.0024316523 -0.025294628 -0.0001069482 0.00041085033 -0.061692912 -0.034003135 0.03716411 0.0011425497
-0.66156733 0.029822355 -0.0037510456 0.001952149 -0.11883827 -0.00026308701 0.35549077 0.0023023733
-0.008009547 -0.04147879 -0.019825196 0.00015879933 -0.019457951 0.46139115 -0.017315753 0.01234108
0.06921549 0.00012048956 -0.00017668746 0.0036769488 0.55973196 -2.4354216e-07 0.008180407 0.063604355
0.0006871998 -0.08605308 -0.0025760862 0.30942196 5.6838293e-05 0.002129419 0.030214863 -0.10525262
-0.0049823406 -0.097773634 0.2371654 -0.020881994 0.236968 0.045073055 -0.00025688636 0.04995951
0.003111422 -0.004063707 -0.0019564854 -0.03201579 -6.923994e-05 -0.0005778961 0.2226031 0.110129066
0.05188078 0.47483647 -0.024278302 -0.12588976 0.358123 0.0005188428 0.11754907 0.0003778072
-0.072195716 -1.2679833 -0.0076618437 -0.1044281 0.105586655 1.9814975e-06 0.22693883 -0.03000911
0.03355761 0.06404562 -0.043809112 0.0009790765 -0.0003702501 0.0075116884 0.048488926 -3.5722674e-06
-0.026648495 -0.052639253 -0.0057651787 -0.012889583 0.0004373164 0.04646474 0.0015391544 -0.00202065
0.001570445 0.016544664 -0.00646182 -0.018026948 -0.01016041 0.021704754 0.022157317 0.043076225
0.0004031458 -0.022888087 0.002871295 -0.0032811274 -0.0047343364 -0.0042192456 9.102334e-06 0.00024856592
-0.04748898 -0.020768434 0.035304222 0.08859284 0.03346702 0.016784335 -0.08708853 0.00019585859
-0.01905447 0.00035534354 -0.05026267 0.0026380413 -0.005875592 -0.004881165 -0.011422375 -1.125923e-07
-0.039273422 -0.030677738 -0.025835918 -0.017933086 0.03655289 -0.001127531 1.2656497 0.007516868
0.01111927 -2.9064774e-06 0.0027331195 0.030443314 -0.002572803 -0.024423715 -0.1501778 0.10688538
0.0006097175 0.00043548906 0.009825485 -0.035703827 -0.0037534956 0.09293741 -0.001742587 0.0065598204
0.04928621 0.059945736 0.0009579212 0.0018222801 0.58181846 -0.0064590694 -0.006393763 -0.084553614
-0.00033461515 0.0003579023 -0.015713183 0.018045967 -0.006181036 -0.046018455 0.03124661 0.008075383
-0.022665802 0.002536828 0.08252557 0.0006668011 -0.07019484 -0.08144731 -0.007440758 0.25869563
-0.106940135 2.1995534e-06 0.12850633 -0.022315513 0.00029547873 -0.036348987 0.054784477 -0.16463685
-0.0014614208 0.0009815476 0.013636108 -1.5489093e-07 -0.036780413 0.06553876 0.5403314 -0.08601048
-0.021880057 -0.011895942 0.00014742783 0.0013532246 -0.09338438 0.034210518 0.0050430545 -0.008416521
-0.0036887631 -0.005906958 -0.0023882817 0.06136391 0.0048203385 -0.015722962 0.01264511 -0.060444437
-0.0035708994 -0.016998688 7.783497e-05 -0.008779981 0.057288386 -0.15737477 -0.067406364 -0.00065532164
0.048142955 0.16275965 -0.018085575 0.0022282992 0.15610412 0.00010459637 -0.018516095 -0.05527223
0.003287112 0.12410202 0.56968707 8.390446e-05 -0.1011463 -0.017915053 -0.030181352 0.12281271
0.03504555 0.013570931 -8.902145e-05 -0.0014992084 -0.0108900815 -1.3751283e-05 0.031500325 0.08063768
-0.040144242 -0.07466378 0.6399398 -0.0947064 0.00014059736 0.00038791436 0.003804844 0.008868491
00000000: e10b f0ba cf98 8d3d a2a2 b6b8 e0e2 5abb
00000010: 1d7e 87bc c435 25bf 8c7a ad3b cdb5 863c
00000020: 3fc7 06b9 c756 8a3e c505 9d3d 0cfd b43e
00000030: 59a9 9b3a 73b2 21bf fda7 0ebb 2f9a babc
00000040: 5b5c 1fbb ae36 cfbc 6149 e0b8 6667 d739
00000050: b5b1 7cbd df46 0bbd 6539 183d 9bc1 953a
00000060: 7a5c 29bf 034e f43c 1ad4 75bb 40df ff3a
00000070: 7b61 f3bd f1ee 89b9 e302 b63e 6ae3 163b
00000080: 7a3a 03bc aae5 29bd 7368 a2bc 5f83 2639
00000090: 4866 9fbc 763b ec3e c4d9 8dbc 3e32 4a3c
000000a0: dac0 8d3d 57af fc38 2e45 39b9 f7f8 703b
000000b0: 984a 0f3f 2ec0 82b4 1d07 063c 0043 823d
000000c0: 3325 343a 993c b0bd 8ed3 28bb 8e6c 9e3e
000000d0: a765 6e38 b98d 0b3b 2985 f73c b08e d7bd
000000e0: e742 a3bb 8b3d c8bd 7ddb 723e b710 abbc
000000f0: bda7 723e 869e 383d b4ae 86b9 58a2 4c3d
00000100: 00e9 4b3b d828 85bb 6138 00bb fd22 03bd
00000110: e934 91b8 f37d 17ba 11f2 633e 598b e13d
00000120: f180 543d c41d f33e 4ae3 c6bc 3fe9 00be
00000130: e65b b73e f302 083a 91bd f03d 6d14 c639
00000140: 59db 93bd 474d a2bf 3410 fbbb 66de d5bd
00000150: d13d d83d def9 0436 a762 683e aad5 f5bc
00000160: b473 093d 5a2a 833d 2f71 33bd 5b54 803a
00000170: 211e c2b9 9c24 f63b 539c 463d 16bb 6fb6
00000180: f24d dabc 429c 57bd d3e9 bcbb d42e 53bc
00000190: 9d47 e539 d051 3e3d 74bd c93a e26c 04bb
000001a0: 64d7 cd3a ad88 873c adbd d3bb 40ad 93bc
000001b0: d977 26bc 2bce b13c 4383 b53c b270 303d
000001c0: 505d d339 cc7f bbbc 562c 3c3b 2f08 57bb
000001d0: 7e22 9bbb 9941 8abb 3ab6 1837 f451 8239
000001e0: ce83 42bd 9022 aabc 299b 103d 2a70 b53d
000001f0: b714 093d 4d7f 893c 795b b2bd 645f 4d39
00000200: 1f18 9cbc 674d ba39 3be0 4dbd fde2 2c3b
00000210: 0a88 c0bb 2ef2 9fbb ea24 3bbc 46ca f1b3
00000220: 2bdd 20bd e14f fbbc d9a5 d3bc 68e8 92bc
00000230: 7cb8 153d aac9 93ba cf00 a23f 0f50 f63b
00000240: 992d 363c e70c 43b6 231e 333b 4264 f93c
00000250: 799c 28bb 3e14 c8bc 36c8 19be b9e6 da3d
00000260: 73d5 1f3a 5a52 e439 12fb 203c 2d3e 12bd
00000270: 35fd 75bb f855 be3d 8467 e4ba c3f3 d63b
00000280: 56e0 493d a989 753d 011d 7b3a 93d9 ee3a
00000290: 0ef2 143f 9aa6 d3bb c582 d1bb 722a adbd
000002a0: 496f afb9 d5a4 bb39 efb8 80bc 23d5 933c
000002b0: 4a8a cabb d97d 3cbd e4f8 ff3c 9c4e 043c
000002c0: a2ad b9bc e940 263b 2b03 a93d 44cc 2e3a
000002d0: 50c2 8fbd d9cd a6bd 9ad1 f3bb c173 843e
000002e0: 6e03 dbbd 0a9c 1336 2a97 033e 06cf b6bc
000002f0: 7cea 9a39 ade2 14bd b065 603d 9096 28be
00000300: 258d bfba 46a7 803a fb69 5f3c 1850 26b4
00000310: 0fa7 16bd 2f39 863d 2953 0a3f 4326 b0bd
00000320: ce3d b3bc 32e7 42bc db96 1a39 af5e b13a
00000330: 4f40 bfbd 5420 0c3d 3540 a53b 73e5 09bc
00000340: 2dbf 71bb 288f c1bb b884 1cbb b958 7b3d
00000350: eef3 9d3b 71cd 80bc 6f2d 4f3c 9694 77bd
00000360: c005 6abb d540 8bbc 553b a338 e9d9 0fbc
00000370: 3aa7 6a3d da26 21be 590c 8abd e4c9 2bba
00000380: 8c31 453d 77aa 263e 3328 94bc a808 123b
00000390: c2d9 1f3e c05a db38 11af 97bc 2265 62bd
000003a0: 976c 573b 3329 fe3d 03d7 113f ddf5 af38
000003b0: cb25 cfbd 97c2 92bc e23e f7bc 3b85 fb3d
000003c0: ec8b 0f3d 9c58 5e3c 07b1 bab8 1681 c4ba
000003d0: 506c 32bc 50b5 66b7 7c06 013d 5e25 a53d
000003e0: 4a6e 24bd 53e9 98bd 18d3 233f 6ef5 c1bd
000003f0: 516d 1339 fc60 cb39 b15a 793b 264d 113c

fc3.bias f4 [10]
0.01654271 -0.075141996 0.010660712 -0.08008558 -0.12390066 -0.0014669928 0.005429366 -0.007211591
0.023149326 -0.047898512
00000000: 9484 873c 0ce4 99bd 44aa 2e3c e903 a4bd
00000010: a1bf fdbd 1c48 c0ba d3e8 b13b 364f ecbb
00000020: a8a3 bd3c 3b31 44bd
