models/mnist_FC1_pgd/model.pth (torch, 171287 bytes, 6 tensors)

fc1.weight f4 [50, 784]
000000 e0 ce cc 36 8f 0d 02 ba aa 90 1b 3b 3b 47 49 bb
       6.103757e-06 -0.0004961127 0.002373735 -0.0030712623
000010 cb 76 4f ba 5d 2e 72 3a c0 55 e8 3a 25 de bb 39
       -0.0007914125 0.0009238476 0.0017725751 0.0003583293
000020 86 1d 83 3b f1 00 19 bb a3 30 42 3b 73 cf 68 bb
       0.004001322 -0.0023346508 0.002963104 -0.003552404
000030 b1 2b 97 39 e7 ce 03 3b 5e 24 88 b9 64 3c b4 ba
       0.00028833517 0.0020112337 -0.00025967037 -0.0013750908
000040 70 44 cf b9 46 7d 45 3b 0c 10 61 3b 38 03 51 ba
       -0.00039533107 0.0030134483 0.003434184 -0.0007973197
000050 c1 16 3a b9 56 a2 1b 3a af 96 b5 ba a6 8e c4 ba
       -0.00017746819 0.00059369707 -0.0013854111 -0.0014996126
000060 19 3e 4a b9 30 f6 2d b9 08 9e 19 3a 29 3e da ba
       -0.00019287354 -0.00016590278 0.00058600353 -0.0016650605
000070 1e 20 2a bb 9a e0 2a 39 a7 f4 94 b9 ba 97 cb ba
       -0.0025959085 0.00016296134 -0.0002841104 -0.0015532889
000080 d6 d4 c5 3a 27 de f9 b9 b7 ea a3 ba 57 f4 bf ba
       0.0015093337 -0.00047658497 -0.0012505864 -0.0014644963
000090 48 68 79 39 e8 a3 e6 b8 90 fc 37 ba f6 db 85 3b
       0.00023785338 -0.000109977846 -0.0007018531 0.0040850593
0000a0 0b 39 57 bb 94 d8 90 3a be 0a ba 3a 11 c7 d8 39
       -0.0032840397 0.0011050873 0.0014193875 0.00041347046
0000b0 98 9b 14 bb 8a 63 d5 b9 e5 6e 9b ba 1f 7c 3a 3b
       -0.002267575 -0.00040700688 -0.0011858611 0.002845533
0000c0 5d 1c 5f bb 2f 17 18 3b a6 e8 69 bb d4 6c 59 3b
       -0.0034044005 0.0023207178 -0.0035691648 0.003317644
0000d0 c0 3a 9c 3a 2e 74 b0 3a fb a4 d3 ba 04 3e 2c b8
       0.0011919364 0.0013462359 -0.001614719 -4.1065752e-05
0000e0 ec 18 fd ba ac 59 cc 39 00 3a 5b b9 39 fa f6 b7
       -0.0019309795 0.00038976723 -0.00020907074 -2.9442004e-05
0000f0 4d a9 43 3b e8 c5 d9 3a d5 2c 8e bb e5 87 20 3b
       0.002985555 0.0016614767 -0.0043388405 0.0024495062
000100 b2 00 12 ba 6e 71 0e 3b 91 51 5d b9 a2 10 e9 38
       -0.00055695616 0.002173509 -0.00021106588 0.00011113404
000110 1d 06 80 ba 3f 65 13 3a 53 3b 6a 3a e5 c0 8a ba
       -0.0009767447 0.0005622692 0.00089352316 -0.0010586052
000120 d2 81 4a ba 29 87 9f ba 96 91 84 b9 dc 42 a1 38
       -0.0007725033 -0.0012171018 -0.00025285472 7.689532e-05
000130 aa 84 cb 3a 64 68 0c 3a 6c ad a8 39 b8 05 5c 3b
       0.0015527208 0.00053561316 0.00032172666 0.0033572745
000140 55 29 4b bb 2f e6 07 3b f0 af fb ba df 10 d0 3a
       -0.0030999978 0.0020736565 -0.0019202214 0.0015874169
000150 c9 ad e5 ba 69 ae 33 bb 54 11 0e 3a f8 87 21 b7
       -0.0017523105 -0.002741719 0.0005419452 -9.6280055e-06
000160 9c 9e 53 bb 53 66 8c 3a d2 e9 04 3b 75 d1 59 3a
       -0.0032290583 0.0010711647 0.002028097 0.00083091046
000170 46 85 54 3b 8b 07 b9 3a 40 96 c7 ba 25 a7 a4 ba
       0.003242807 0.0014116628 -0.0015227273 -0.001256202
000180 a1 25 11 ba fb 8f 28 ba ac 37 1d 3a 04 95 39 bb
       -0.0005536918 -0.0006430146 0.00059973705 -0.002831758
000190 6c ec 41 bb ac ec c2 ba 1c 58 a2 3a cc b7 23 ba
       -0.0029590381 -0.0014871559 0.0012385878 -0.00062453444
0001a0 6b 47 19 3a ce b1 a7 ba 05 93 05 bb e4 22 47 39
       0.0005847129 -0.0012794079 -0.002038182 0.00018991117
0001b0 55 e6 be ba ce 6e 33 3b 0c 3f 15 3b 15 d5 8b ba
       -0.0014564494 0.0027379277 0.0022773175 -0.0010668362
0001c0 1a 8a ac 3a 70 1a 35 37 04 e2 0f ba f2 b2 93 3a
       0.0013163716 1.0794596e-05 -0.0005488696 0.001126854
0001d0 98 f9 b9 3a 52 33 82 39 f2 d1 10 3a b6 fa 59 3a
       0.0014188765 0.0002483377 0.00055244484 0.0008315252
0001e0 bd 59 4c 3b 34 e6 02 b9 24 41 bb b9 60 67 62 38
       0.0031181418 -0.00012483523 -0.00035715953 5.3978874e-05
0001f0 f5 4f 11 3b 85 70 91 3a 91 05 89 b7 88 94 46 b9
       0.0022172902 0.0011096156 -1.6334265e-05 -0.00018938084
000200 b8 6c 47 bb e9 8f 06 bb 81 ba 05 bb 83 67 6e ba
       -0.0030429792 -0.0020532554 -0.0020405354 -0.0009094404
000210 1e bc 06 bb de 71 b6 3a a5 81 09 ba df 0d 23 3b
       -0.0020558904 0.0013919433 -0.0005245454 0.0024880094
000220 9c b3 16 3b 61 23 ac 39 3b 28 55 3b 00 cd a1 ba
       0.002299524 0.00032832756 0.00325252 -0.001234442
000230 09 7a ba b9 e4 86 25 3b 4c fc 81 39 78 b0 3e bb
       -0.00035567608 0.0025257403 0.00024792773 -0.0029096883
000240 55 08 7e ba a6 45 93 ba af c1 cf 39 52 70 d4 39
       -0.00096905726 -0.0011235967 0.00039626422 0.00040519476
000250 1a 36 03 3b 80 4f 5d 3b f6 ca f5 3a 4e 30 4b 3b
       0.002002126 0.003376931 0.0018752504 0.0031004134
000260 c2 8e 88 3a 68 ef 1c 3a 14 cd c2 3a 31 48 8f 3c
       0.0010418522 0.0005986602 0.0014862143 0.017490478
000270 91 f3 19 3d 2d e4 69 3c 0e bc 87 3b 0f 5a d1 3a
       0.0375858 0.014275593 0.004142291 0.0015972274
000280 85 27 a5 bb 6d bf 79 bb 25 97 ab ba 40 de b5 38
       -0.0050401115 -0.0038108483 -0.0013091309 8.67215e-05
000290 40 b6 bf 3a e1 3a a1 ba 22 30 37 38 6e ee 25 ba
       0.0014626458 -0.0012300872 4.3675427e-05 -0.0006329779
0002a0 b3 ab 0c ba 38 7e 0e 39 a1 88 eb ba 53 55 82 3a
       -0.00053661613 0.00013589195 -0.0017969796 0.0009943641
0002b0 24 f3 e0 b9 ed 4c 5d bb f7 85 21 bb 31 22 0d ba
       -0.00042905763 -0.0033767775 -0.00246465 -0.0005383818
0002c0 b5 e1 4c 3b 65 09 e8 3b 7c 44 cf 3b 5c ec 08 3c
       0.0031262462 0.007081198 0.0063253026 0.008357134
0002d0 2b 3c 50 3c 13 5f 34 3c 71 e8 30 3c ab 83 3e 3d
       0.012709658 0.011008996 0.010797606 0.046512287
0002e0 ce fc 8f 3d 20 54 94 3d fd 83 86 3c fa 9f ee 3b
       0.070306405 0.07242608 0.016420359 0.0072822543
0002f0 4e b4 35 bb 68 fc 8e bb 1b c4 3d bb 94 7f 6d ba
       -0.0027725878 -0.0043635853 -0.0028956 -0.0009059843
000300 46 be bb 3a e6 a6 e2 3a 6c 1d 0d ba b4 30 20 b8
       0.0014323674 0.0017292171 -0.00053831073 -3.819233e-05
000310 27 67 7f ba d1 b4 17 ba a4 f2 1b bb 08 a2 7d bb
       -0.0009742849 -0.00057871366 -0.0023795748 -0.0038701314
000320 50 e5 8b ba 80 a4 3c bb 26 98 18 bb ec 7c dc 3a
       -0.0010673199 -0.0028784573 -0.0023284047 0.0016821898
000330 b0 10 df 3b 41 6e 3e 3c 4d 17 00 3c 12 3b eb 3a
       0.006807409 0.011622966 0.007818055 0.0017946681
000340 62 80 2a b9 93 a6 e9 ba aa 5d db 39 89 04 2f 3c
       -0.0001626029 -0.0017826132 0.0004184072 0.010682234
000350 d6 46 0a 3d 33 0d 80 3d fc 0c d0 3d c6 ae 2b 3d
       0.03375896 0.062525176 0.101587266 0.041914724
000360 57 de 0b 3c fc 36 1b 39 59 88 14 ba 75 f8 bc 3a
       0.008536897 0.00014802435 -0.00056660693 0.0014417308
000370 9e a1 b7 39 c2 11 f4 3a 22 a5 b5 39 5a d4 b5 ba
       0.00035024894 0.0018621015 0.00034646044 -0.001387249
000380 bc 99 7e 3a a6 41 e8 3a 3c 7d 8e 3a 18 eb 97 b9
       0.0009712239 0.001771976 0.0010871063 -0.00028976123
000390 eb 89 b4 ba e0 32 bf ba 20 a5 29 3a 95 1f 5e 3b
       -0.0013774013 -0.0014587305 0.0006471444 0.0033893336
0003a0 b2 55 0a 3c c6 fe 02 3c b2 1e 39 ba af 8e 97 3b
       0.008443283 0.007995313 -0.0007061764 0.0046251635
0003b0 cf a7 1c 3d 4a 3d 07 3d 2f c0 18 3d b0 a5 4f 3d
       0.038245972 0.033017434 0.037292656 0.05069512
0003c0 32 b0 8e 3d ab 86 25 3d bb 11 e1 3d 15 d5 34 3e
       0.069672 0.040411633 0.1098971 0.1765941
0003d0 2b 1a e1 3d 23 01 59 3c 52 0e 4a 3b 01 b7 80 3a
       0.10991319 0.0132449 0.003083129 0.0009820164
0003e0 55 f6 7a 3a 14 c8 53 3b 8d 61 4b b9 6c bd e2 3a
       0.00095734495 0.00323153 -0.00019395929 0.0017298884
0003f0 8a b6 ef 3a 57 35 a6 39 d9 5a a6 ba c8 35 d7 b8
       0.0018288654 0.0003170173 -0.001269187 -0.000102620164

fc1.bias f4 [50]
000000 fd c7 d0 3e 0b 6c 55 be a0 66 db 3e df ca 69 be
       0.4077758 -0.20841996 0.42851734 -0.22831295
000010 ae 24 5e be ad 31 45 be ab 51 26 3e f1 4f 0d be
       -0.2169368 -0.19257231 0.16242091 -0.13800026
000020 9a 3e 3d be 44 da 5f be 86 13 46 be d4 5c 60 be
       -0.18480912 -0.21860605 -0.19343385 -0.21910411
000030 9f 38 a1 3e aa 2c 43 be 6f 30 27 be b5 d9 82 be
       0.3148851 -0.19060007 -0.1632707 -0.25556722
000040 5d b5 06 be ff 1a 5c be 32 b6 39 be af dc 0e be
       -0.13155122 -0.21494673 -0.18135908 -0.13951372
000050 47 8e 3e be 2c b7 4d be a4 54 ad 3e 88 bd 7a be
       -0.18608962 -0.20089406 0.33853638 -0.24486363
000060 f8 a1 1a be 35 1e 14 be dd f2 91 be fe 6b 3f be
       -0.15100849 -0.14464648 -0.28505602 -0.1869354
000070 7b 86 84 be 5e 75 04 3e e5 22 17 be 71 47 14 be
       -0.2588385 0.12935397 -0.14759405 -0.14480378
000080 1e c5 09 3c 50 1b fd bd 2a 56 55 be 67 d7 1a be
       0.008408813 -0.12358725 -0.2083365 -0.15121232
000090 6d e5 5c be ad 8c ea bd da c5 07 be 72 7f 6c be
       -0.21571894 -0.11452613 -0.13259068 -0.23095492
0000a0 ba 89 e5 3d 52 cc 21 be a8 ab 0a be 8a 35 19 be
       0.1120791 -0.15800598 -0.13542044 -0.1496183
0000b0 48 9d c0 3e a1 dc fe bd 56 aa 4b be d1 c2 1c 3e
       0.37619996 -0.124444254 -0.19889197 0.15308692
0000c0 72 6d aa 3e 68 40 65 be
       0.33286625 -0.2238785

fc2.weight f4 [50, 50]
000000 c6 1b 05 be 30 f5 77 bc 7e ed 74 bd cc df 96 bc
       -0.12998876 -0.015134141 -0.059796803 -0.018417262
000010 14 2f 6c 3d 47 fc 21 3d f8 42 c8 bc bb 7d 79 3c
       0.057662085 0.03954723 -0.024445996 0.01522773
000020 46 25 14 bc 60 54 13 bc 89 37 ec bd 2c ce ce bd
       -0.00904209 -0.008992285 -0.1153403 -0.10097918
000030 50 eb 80 bc 69 b1 db bd 80 96 9e bc 0a b6 78 bd
       -0.015737206 -0.10727198 -0.019358873 -0.06072048
000040 62 01 50 3d ca dd f7 bb 8a dd 09 3d e2 c2 28 bd
       0.05078257 -0.007564281 0.03365854 -0.04120148
000050 76 48 2b 3b 8f 5c 98 3d 7c cd e6 bc 78 b2 88 bc
       0.002613572 0.07439529 -0.028174154 -0.016686663
000060 f5 32 10 be 6f 12 59 bb c0 a5 fd bb 0f ab 04 bc
       -0.14081939 -0.003312256 -0.007740706 -0.008097424
000070 54 0b db bd af ad 86 bd 8d 80 d2 3d f8 c8 a4 bd
       -0.1069552 -0.06576096 0.10278425 -0.08046144
000080 53 b8 0f be b4 7b b9 bc ba 02 03 bd 1e 85 bf bd
       -0.14035158 -0.022641994 -0.031985022 -0.09351562
000090 f4 4b af bd f8 55 92 3d 20 ea 8a bd ca 6c 71 3d
       -0.08559409 0.071453035 -0.06782937 0.05894164
0000a0 fb b9 a3 3b 9a 18 01 be 0a 04 f0 bd a0 73 b1 bd
       0.004996536 -0.12607041 -0.117195204 -0.08664632
0000b0 80 73 80 bc 8b 40 01 bc c0 b8 a2 3d 9c 7a 6a ba
       -0.015680075 -0.007888923 0.079453945 -0.0008944662
0000c0 00 df 2f 3c 1c fd b3 ba 9c 1a c5 bb 4b 23 a2 b9
       0.01073432 -0.0013732049 -0.006015135 -0.00030925343
0000d0 bd 5a 5e 3e 96 28 80 3d ec 02 07 3d 1d 00 58 3d
       0.21714301 0.06257741 0.03296177 0.052734483
0000e0 f1 37 0d bc b5 33 de bd ea 60 0e 3d b8 e8 39 bc
       -0.0086192945 -0.10849706 0.034760393 -0.011346988
0000f0 0c fe c4 bd ea 55 c9 bd 28 5e 53 bc cc 8a 89 b8
       -0.09618768 -0.0983084 -0.012900867 -6.558522e-05
000100 f2 73 a9 3d 96 82 55 3b 21 b1 c2 bd a1 e6 9b bc
       0.08274068 0.0032579056 -0.09506441 -0.01903087
000110 1b 41 fe bd 49 2d 9c bd 0f 5a c2 3d f0 8e 62 3d
       -0.12414762 -0.07625825 0.094898336 0.055312097
000120 fb dc 5e bb 35 24 85 3d fb 38 c2 bd 13 51 4f bd
       -0.0034006226 0.065010466 -0.094835244 -0.050614428
000130 75 ca 4a b9 ce e1 18 3c 8e e1 4a bd 2c d5 0c bb
       -0.00019339642 0.00933118 -0.049531512 -0.0021489365
000140 e7 b2 51 bd 81 21 54 bb ba a9 5b bf 82 94 33 3d
       -0.051196005 -0.0032368603 -0.8580586 0.0438428
000150 29 33 0c be 44 18 d1 bd 52 7f 8e bd 64 1e 66 b9
       -0.13691391 -0.102097064 -0.06957878 -0.0002194583
000160 9a 03 b0 3c 41 70 58 bd 7c 90 04 bc d3 82 bd bd
       0.021486092 -0.05284143 -0.008091088 -0.09253468
000170 01 dc cf 3d a6 51 09 bd 6e ef 0a bc 53 88 b9 ba
       0.10149384 -0.03352513 -0.008479936 -0.0014155008
000180 10 d4 c5 b7 93 c3 b3 bb 4b 26 99 3d 8f 59 33 bd
       -2.358298e-05 -0.0054859607 0.07478007 -0.04378658
000190 2e 26 ab 3b 24 12 fb bb 27 42 ae 3b 6e aa 45 bc
       0.005223057 -0.0076620746 0.0053179446 -0.012064559
0001a0 94 b6 ab 3d 86 36 15 bc 38 ac b9 be 0d 53 9f bb
       0.083844334 -0.009107238 -0.36264205 -0.0048621953
0001b0 be 31 dd bb b2 8c b4 bc 4f f4 71 bd db b0 96 bd
       -0.0067503145 -0.022039745 -0.05907088 -0.07357951
0001c0 0c 09 89 3b 78 e6 a3 bd 46 d5 a7 bd 97 e8 2e ba
       0.0041819867 -0.08002943 -0.081949756 -0.0006672232
0001d0 dd e4 40 3d 8d b3 35 bd 96 69 57 3c a5 93 62 3d
       0.04709326 -0.044360686 0.013147732 0.055316586
0001e0 9a 20 7e b9 b0 76 a2 3d 10 bc ae bb 6a 87 d6 bd
       -0.00024235473 0.07932794 -0.0053324774 -0.10475047
0001f0 da dc 05 bd 69 60 88 3c bc 66 11 bc f5 7d 7b bd
       -0.032681324 0.016647534 -0.008874591 -0.06139942
000200 2b c0 cf 3d d7 3c 87 3d de df 01 be cd 87 a0 3b
       0.10144075 0.06603401 -0.12683055 0.004899001
000210 34 d3 cc 3c ea 4c 59 bd 35 0f 5c bb 88 9c cf 3d
       0.025003053 -0.053051867 -0.00335784 0.10137278
000220 50 38 38 bc cb 7c 86 bd 92 7d 39 b9 aa ff 24 3d
       -0.011243895 -0.06566771 -0.00017689753 0.040282883
000230 5e 6c a2 3e 0d 1b c4 bd 91 4c a3 bd 95 1e 0f bc
       0.31723303 -0.09575472 -0.07973588 -0.008735319
000240 06 22 de 3a ab 4e 0e be 55 8e b5 bd 48 a8 9f 3c
       0.0016947396 -0.13897197 -0.08865038 0.019489422
000250 4f a8 14 3c 41 4d 06 be 52 48 79 bb cb 03 3d bd
       0.009073331 -0.13115408 -0.003803749 -0.046146195
000260 6b 56 b5 3e fe 7b 81 bc 21 e7 af 3d 32 4d cb 3d
       0.35417494 -0.015806194 0.08589006 0.09926833
000270 28 9c 46 bb 29 35 9e bb 93 4d b2 3d 45 0b 50 bd
       -0.0030305479 -0.0048281145 0.08706202 -0.050791997
000280 74 ee 4a 3d 5d 30 8f bc 7e 5e b6 bb c6 6c a7 3c
       0.049543813 -0.017479116 -0.0055654636 0.02043761
000290 ee 44 8c 3c a3 46 a8 bd 32 e6 ab 3d 92 09 e4 ba
       0.017122712 -0.08216598 0.08393516 -0.0017397872
0002a0 68 de e0 b8 9d d0 fd 3c 34 0e 72 3c d4 2a b6 3d
       -0.00010722579 0.030983264 0.014773894 0.088948876
0002b0 0f ea 34 bb f8 5c 05 3d 88 50 ad 3d af 61 a6 3d
       -0.002760533 0.032559365 0.08462626 0.081241004
0002c0 e6 34 c6 bd 82 ef 0d bc e8 8e 0f bc 3a b0 90 be
       -0.09678058 -0.00866306 -0.008762099 -0.2825945
0002d0 33 66 21 bd 98 df 68 bd ea 5f 85 bd 39 88 11 be
       -0.039404105 -0.05685386 -0.06512435 -0.14212121
0002e0 36 f9 07 be 86 a5 b1 bb de fb 8b 3d 3a 72 00 be
       -0.1327866 -0.0054213433 0.06835149 -0.12543574
0002f0 b4 0d 8e bc c4 27 c8 3d 55 c4 e8 bb 16 00 ce 3d
       -0.017340519 0.0977321 -0.0071034827 0.1005861
000300 5e 6c 3c bd f3 0e ad 3d 46 d5 43 bb 71 31 c5 bc
       -0.046001785 0.08450117 -0.002988176 -0.024071427
000310 c3 12 c6 3c 5f 01 60 bb c8 2b c0 bc 8e 81 64 bd
       0.024178868 -0.0034180505 -0.023458377 -0.055787615
000320 65 8f 94 be 1c b0 90 bd d2 46 87 3b 83 7b 7d bc
       -0.2901565 -0.0706484 0.0041283155 -0.015471342
000330 a8 a7 c9 bd f0 8a 97 3b f3 03 80 3b 85 88 59 bc
       -0.09846431 0.004624717 0.003906721 -0.013277178
000340 0a 93 40 3d 1d 3d 93 3d e2 7d 5a bd d9 1e 0d be
       0.047015227 0.07189391 -0.053342707 -0.13781299
000350 ad f2 f5 be 62 21 d6 3d 03 ff 5d 3d 7f b6 c2 3d
       -0.4803671 0.10455586 0.054198276 0.095074646
000360 45 b1 35 bb dc cc 4f bd df 87 87 bc 57 00 da bb
       -0.002772407 -0.05073248 -0.01654428 -0.0066528725
000370 a8 ec 57 3d 30 ea 09 bd f4 f2 02 3b 0c c5 d5 bd
       0.052715927 -0.033670604 0.0019981237 -0.10437974
000380 cf 76 93 bd 43 dc ae 3d 6b 9b bc 3d 24 87 f8 bd
       -0.07200395 0.08538105 0.09209331 -0.12135151
000390 8a 5c 43 bd 4a 9d 09 3e 3b 30 92 bb da b2 2e 3e
       -0.047695674 0.13438907 -0.004461316 0.17060414
0003a0 31 d7 22 be 20 ed 16 3d 81 9c 21 bd 9e ba b6 bb
       -0.15902402 0.036847234 -0.039455894 -0.0055764457
0003b0 ee 5c d2 bb 37 ea 8d bd 5b bb 24 bd bc d7 e3 bd
       -0.0064197695 -0.069294386 -0.04021774 -0.111251324
0003c0 7e 8a 1c 3b 30 7a ce 3c cb 07 0c bc 71 4c 2a bc
       0.0023886259 0.025204748 -0.00854678 -0.010394202
0003d0 83 33 49 b9 0c de 01 bc 19 39 03 bc 89 0d 0a 3a
       -0.00019188043 -0.007926475 -0.008009219 0.0005266299
0003e0 8c c2 80 3e a9 b7 3f b8 9d 20 84 bb 98 66 b1 bd
       0.25148427 -4.5708995e-05 -0.004032208 -0.08662146
0003f0 10 b7 2f bd 01 fc c4 3d f7 75 84 bd 7c cf 6c bd
       -0.04289919 0.096183784 -0.064678125 -0.05781506

fc2.bias f4 [50]
000000 02 1e 5a be cc 24 24 3f 1c 4f 1a 3f 5b 74 be 3e
       -0.2130051 0.6411865 0.6027696 0.37198147
000010 15 71 83 3d ad fb 72 bb 67 42 a2 bd 90 ca 14 be
       0.06418053 -0.003707628 -0.079228215 -0.14530396
000020 68 ab 21 3e 2f 99 48 be 4c 2b 76 be 28 75 ae 3d
       0.15788043 -0.19589685 -0.24039954 0.085184395
000030 cf e3 07 be 26 7c 31 be be c7 6b 3e e7 6c 30 be
       -0.13270496 -0.17332515 0.23025414 -0.17229043
000040 8f f8 4b be dc c2 b1 bb ea 5e 79 3e bd 36 09 3f
       -0.19919036 -0.0054248404 0.24352613 0.5359915
000050 b1 f1 e2 3e 72 6c 20 3f 83 db 9e 3e d1 cf 19 3f
       0.4432502 0.62665474 0.3102685 0.6008273
000060 e1 9c 6c be 64 45 e3 3e 59 62 0e 3e b4 27 0e be
       -0.2310672 0.44388878 0.13904704 -0.13882333
000070 e0 eb e1 3e 66 40 78 be 9a 47 a3 bd 19 0e 8b 3d
       0.4412527 -0.24243316 -0.07972641 0.06789798
000080 73 39 55 bd 89 c1 80 3d 66 89 5d 3f 6c 1b 1d 3e
       -0.05205674 0.06286914 0.8653778 0.15342492
000090 b7 b3 0a be 4c 71 5c be 63 c9 52 be ea 57 d2 3e
       -0.13545118 -0.21527594 -0.20584635 0.41082698
0000a0 67 14 24 be e8 5f f4 bd f5 31 af 3c 17 0a 7e 3e
       -0.16023408 -0.11932355 0.021386126 0.24808536
0000b0 32 68 30 be 48 89 ba bd 16 4a 0c 3f ca fe 06 3f
       -0.17227247 -0.091082156 0.54800546 0.5273253
0000c0 a5 48 4c be 8e 42 7a be
       -0.19949587 -0.24439451

fc3.weight f4 [10, 50]
000000 e6 63 29 b8 17 92 38 bb d4 10 72 bc a9 43 54 bb
       -4.0385778e-05 -0.0028163248 -0.01477452 -0.0032388961
000010 3e 2a 3a bf 59 2b cb b6 a7 4d 76 bd ad c5 3b 35
       -0.72720706 -6.054918e-06 -0.06013265 6.9950585e-07
000020 5d 01 6d bb 80 6a 95 bd b1 79 f5 b7 35 63 95 bc
       -0.0036164143 -0.07295704 -2.9262943e-05 -0.018235782
000030 5a 53 10 37 f1 18 3c b7 26 a0 26 bf e0 95 1f bb
       8.602476e-06 -1.121148e-05 -0.6508812 -0.0024350807
000040 09 30 58 3d 43 d9 60 bd 69 db 84 bd 9e 0b 65 3e
       0.052780185 -0.054894697 -0.06487162 0.22367713
000050 db 56 07 bb e9 4e 89 bf 6d a5 10 bf 63 6b 3d bb
       -0.0020651135 -1.0727206 -0.5650242 -0.0028903119
000060 53 e0 a4 bd ac 76 89 bc 65 97 be ba b9 49 2d b8
       -0.08050599 -0.01678022 -0.0014540969 -4.1315074e-05
000070 f7 15 ab bb 6f 89 1b bc 8f 89 fd bd 34 c4 64 bc
       -0.0052211243 -0.009493216 -0.12379753 -0.013962794
000080 51 7a 71 bc b9 73 62 be 38 1a 95 bc a1 af 97 bb
       -0.014738635 -0.22114457 -0.018200979 -0.004629091
000090 7f fe 98 37 93 e9 22 bc 8b 7b 3c bd fa 64 fd bb
       1.8238321e-05 -0.009943384 -0.046016257 -0.0077329846
0000a0 aa bf 88 bc 84 bd 14 3c 06 ad e4 bb ac d9 98 3e
       -0.016692955 0.009078387 -0.006978634 0.2985357
0000b0 d0 31 0f 38 15 a8 35 3d 35 9c bc bb ef 2d 0b be
       3.414025e-05 0.04434975 -0.005755926 -0.13591741
0000c0 5f e2 15 b7 72 72 1d bd c4 0a 99 bc e1 e7 b6 b9
       -8.933798e-06 -0.03843922 -0.018681891 -0.00034886508
0000d0 17 82 c4 ba 4e 40 c1 bb e3 83 29 bb dd ea 99 bc
       -0.0014992383 -0.0058975583 -0.0025865964 -0.01878875
0000e0 63 66 80 3d 94 8a 6a bd 82 46 53 39 d4 63 97 b7
       0.06269529 -0.057261065 0.00020148794 -1.8047089e-05
0000f0 1b 44 08 37 67 37 a6 bb 38 fa 9d 3d ad a5 90 3d
       8.122089e-06 -0.0050725224 0.07713741 0.0706285
000100 2f 13 43 bc b1 ab 40 bb 57 1e b9 b7 bd 8f b3 bc
       -0.011906429 -0.002939921 -2.2067847e-05 -0.021919126
000110 d6 1f f7 ba f8 e2 73 bb 54 45 9f 3b d3 66 03 3f
       -0.0018854092 -0.0037214141 0.0048605595 0.5132877
000120 b3 93 31 bb 64 50 9e bb dc 39 f8 3a e1 ae bc bb
       -0.0027096092 -0.0048313607 0.0018938142 -0.005758152
000130 3c 13 c4 bb 18 74 8e bd d8 dc e7 3d 3d 9a 79 bd
       -0.005983738 -0.06955737 0.113214195 -0.06093811
000140 1d c3 81 bb 90 4b 71 bb 47 97 80 3d da dc 11 ba
       -0.003960027 -0.003681872 0.06278854 -0.00055642205
000150 47 de bb bb 9f 7c b6 be ca 51 9d bc a0 6e 5d bb
       -0.0057332846 -0.35641953 -0.01920404 -0.0033787861
000160 ec 9b 8d b6 18 c6 d9 bb 55 cf b8 bd de 9a 81 ba
       -4.220279e-06 -0.006645929 -0.090239204 -0.0009888073
000170 fc e9 ee be 11 2d e0 be b6 b8 8f 3d f9 99 52 b7
       -0.4666289 -0.43784383 0.07017653 -1.2552825e-05
000180 2f 5c cb bb 54 1e 12 3f c1 32 8c 3d 37 fb c1 b7
       -0.0062060575 0.5707753 0.06845618 -2.3124374e-05
000190 e3 95 c3 bd 02 b0 0f be 1d 3a c2 3a 46 fb 87 3b
       -0.09550073 -0.14031985 0.0014818344 0.004149827
0001a0 3d 30 2d bc b3 f7 7c 3d de 8b da b5 e9 e9 05 3d
       -0.010570583 0.061759662 -1.6282972e-06 0.032693777
0001b0 7c d9 aa 3e 57 f8 39 3d 2e d2 81 bd 47 13 47 ba
       0.33369052 0.04540285 -0.06338917 -0.000759412
0001c0 f3 6c aa 3d 16 04 9d 3c d3 37 0d bc 97 18 b5 3a
       0.08321562 0.019166987 -0.008619267 0.0013816532
0001d0 70 74 37 bd 39 f1 1a bd 46 58 0a bc 6d f6 80 b9
       -0.044788778 -0.037827704 -0.008443898 -0.00024597664
0001e0 40 f6 32 3e a3 f1 68 3a 0c d5 06 bb 75 bc ce ba
       0.1747675 0.00088861043 -0.0020573763 -0.0015772717
0001f0 d4 43 7e bb 58 c3 6a ba 22 e6 a4 b9 57 9c 50 bd
       -0.0038797753 -0.00089555 -0.0003145198 -0.050930347
000200 12 30 e1 be 90 af c4 3c 04 42 b3 3a b7 2e 2f 3b
       -0.43981987 0.024009496 0.001367629 0.0026730725
000210 18 9c 4b b7 89 7e c1 3e 40 30 27 bc 32 1c 04 3b
       -1.2136086e-05 0.3779185 -0.010204375 0.0020158407
000220 18 f9 98 3d bb 4b a8 bc 04 96 2d bd d7 65 40 bf
       0.07469386 -0.020543924 -0.042379394 -0.75155395
000230 43 31 7a bd e8 26 f5 3b aa 2a 03 ba 85 8b 83 bb
       -0.061082136 0.0074814446 -0.0005003611 -0.0040144348
000240 87 d4 e7 3d f5 3d 85 bd f2 fd ba bd 39 14 91 3a
       0.11319833 -0.06505958 -0.091304675 0.0011068649
000250 97 3b 42 bd 59 ac 59 bd 29 53 34 3c 30 a6 00 3b
       -0.04742011 -0.05314288 0.011006155 0.0019630305
000260 04 bd 62 bf c0 e9 cd 39 ee 84 af 3b 10 7a ec 37
       -0.88569665 0.00039274804 0.0053564226 2.8190232e-05
000270 35 b6 72 bd 8f a7 e4 3c 9e af 84 bd f8 6e 7f b7
       -0.059255797 0.02791193 -0.06478809 -1.5225021e-05
000280 ae 74 0b 3d ba 93 d5 3e 5f fa 92 3d a2 94 5c 37
       0.03404682 0.4171427 0.07176661 1.3147628e-05
000290 4a ba fc b8 44 ce 88 3b 38 3f 94 3c 08 0b 5d bd
       -0.000120509954 0.0041749794 0.018096551 -0.0539656
0002a0 de ac 02 3b e8 c2 d5 3b c6 42 a6 3b aa 0f 0a 3c
       0.0019939463 0.006523479 0.005073878 0.008426586
0002b0 12 ce df 39 65 dc fc 3b d5 72 58 3d fd 99 91 bc
       0.0004268741 0.0077167028 0.052843887 -0.017773623
0002c0 9c c1 1e 3e 81 53 a9 bd a2 da 59 be d9 8e 8f bd
       0.15503544 -0.0826788 -0.21274808 -0.07009668
0002d0 54 68 27 3b 28 32 c5 ba 12 b0 9b bd 41 0c 13 39
       0.0025544362 -0.0015044855 -0.07601942 0.00014023577
0002e0 45 fd d1 bb 9c 5f 5d be b7 7d da bd 5f 25 09 bb
       -0.006408366 -0.21618503 -0.106685095 -0.0020926816
0002f0 6c 53 b4 bd 75 3b 93 3b 1a 93 af ba 8c e1 ee bb
       -0.08804974 0.004493172 -0.001339528 -0.007290071
000300 0d 89 18 bb 5d d0 ba bb 15 12 57 3c 0e b5 0a bd
       -0.0023275048 -0.0057011084 0.01312687 -0.033864073
000310 60 4b 88 bc af e4 2a 3a 9a 7e 60 3d 4e fa 24 3d
       -0.016637504 0.0006519062 0.054808237 0.04027777
000320 43 16 82 3d 06 ea 05 bb 35 42 c3 3d 14 93 0f bf
       0.06351902 -0.0020433678 0.09534112 -0.560838
000330 9f 88 d2 b9 41 f5 94 3d c0 77 05 37 50 02 ad 37
       -0.00040156112 0.07273341 7.955299e-06 2.0624284e-05
000340 2a 45 4f ba ba fa 96 bd 9f fe ae 3d 4d 4c cf bb
       -0.00079067296 -0.07372041 0.08544659 -0.0063262344
000350 dd 30 57 bd 09 45 99 bd 52 ba 75 3e 04 02 08 bb
       -0.052536834 -0.074838705 0.23996857 -0.0020753155
000360 6d 18 2c bd 64 3a 3b bd f7 11 ca ba 9b bc 77 be
       -0.04201548 -0.045709983 -0.0015416731 -0.24193041
000370 44 d5 bc be 1c fe 81 bb 62 69 ab ba 58 b1 65 bf
       -0.3688146 -0.00396706 -0.0013077671 -0.8972373
000380 f2 b3 a6 3d 44 f2 2f 3e 6c 06 dc bd be 97 2b 37
       0.081397906 0.17182261 -0.107434124 1.02277245e-05
000390 35 22 0e 3e b0 b5 21 bd 86 a1 f2 bd 94 de 87 3b
       0.13880236 -0.03947991 -0.118472144 0.0041464064
0003a0 2d 8c cc 3b 8b 78 8c bb aa ca 95 b9 8e d2 6f 3a
       0.006242296 -0.004286831 -0.0002857049 0.00091485016
0003b0 a7 a5 c4 3d 22 12 b2 3c 45 8e 80 3d 52 76 e5 ba
       0.09601908 0.021737162 0.06277136 -0.0017506576
0003c0 7a 02 32 3d 2a 6c 95 37 33 7f 14 3e d6 01 45 3b
       0.043459393 1.7812552e-05 0.14501648 0.0030060909
0003d0 1c c7 6a b7 9a 14 8f 3d 07 c9 28 bb 88 b0 75 bb
       -1.3993846e-05 0.06986351 -0.0025754587 -0.0037489254
0003e0 20 67 ba bc 1b 57 ec 39 44 92 35 bd 4a 8e 79 b9
       -0.022754252 0.00045078326 -0.044328943 -0.00023799497
0003f0 4f 82 01 3c 17 f4 0e 3c b7 8e ec bb c2 9e a3 36
       0.007904603 0.008725188 -0.0072191614 4.8762604e-06

fc3.bias f4 [10]
000000 a4 66 21 3e 63 b3 1b 3e 5c a8 88 be e4 4f 0c bd
       0.1576181 0.1520515 -0.26690948 -0.034255877
000010 de 89 fe bd 4e 23 2e 3e ca 54 98 3e 08 0e 42 3e
       -0.1242864 0.17005655 0.2975219 0.18950665
000020 fd 1c 18 bf 30 8b 88 be
       -0.5941923 -0.26668692
