models/mnist_CNN0/model.pth (torch, 3572 bytes, 6 tensors)

conv1.weight f4 [3, 1, 4, 4]
0.14572893 0.22064866 0.31134886 0.17833556 0.030696576 0.08470271 0.08499343 0.1303221
0.23290443 0.15978937 0.15141807 0.2531044 0.36122975 0.35558277 0.32879233 0.4266251
0.29638535 0.052366193 0.01916336 0.4347038 0.06714592 0.7695367 0.10914937 0.91816646
-0.34580037 0.6288162 0.6239386 0.10179805 -1.329521 -1.2276216 -1.3970398 -1.4682556
-0.51386166 0.8098834 0.59136415 0.48294452 -0.81126577 -1.6651794 -1.1583462 -0.87475735
-0.01297333 0.19333497 0.04470382 -0.33668572 0.727209 0.08178766 0.4881018 -0.25127813
00000000: f739 153e b9f1 613e 1e69 9f3e 999d 363e
00000010: 6377 fb3c 9d78 ad3d 0911 ae3d 2873 053e
00000020: 807e 6e3e d39f 233e 570d 1b3e e696 813e
00000030: 1bf3 b83e f20e b63e 7857 a83e 9b6e da3e
00000040: d2bf 973e ef7d 563d 7bfc 9c3c 7f91 de3e
00000050: cd83 893d 5b00 453f b489 df3d f50c 6b3f
00000060: bf0c b1be 19fa 203f 71ba 1f3f 7f7b d03d
00000070: be2d aabf b422 9dbf 33d2 b2bf cdef bbbf
00000080: 708c 03bf 8554 4f3f a463 173f 8144 f73e
00000090: 1daf 4fbf 9924 d5bf b044 94bf 19f0 5fbf
000000a0: 178e 54bc 9af9 453e 5a1b 373d 1262 acbe
000000b0: 5e2a 3a3f 4a80 a73d 7be8 f93e 87a7 80be

conv1.bias f4 [3]
0.0017565449 0.11892942 0.4055033
00000000: de3b e63a 4591 f33d 219e cf3e

conv2.weight f4 [3, 3, 3, 3]
-0.69100356 0.10736465 0.9949213 0.3955802 0.31911805 0.46870053 -0.111146785 -0.5740704
-0.5512795 -1.302765 -0.7503645 -0.998369 -0.09675071 0.5915538 0.97823507 0.26583284
0.98228514 1.3610432 -0.26918063 -0.4571122 -0.9245858 -0.18483125 0.039498664 0.44432366
0.26755068 1.5818756 1.7860589 1.6109059 -0.9130994 -0.4853529 1.4873766 0.29800612
-0.18465836 -0.112994835 0.5126579 0.33300582 0.03026324 0.38601232 -0.0675777 0.7174921
0.40672904 0.38414478 0.57922447 0.40707296 0.2609768 -0.47819206 0.40567875 0.3268849
0.0908877 0.89394474 0.7937505 0.11804852 0.42031887 0.34126702 0.083118334 -0.72593075
-0.42731562 -0.03744922 0.6449534 0.59724766 1.0373464 0.558234 0.5956034 0.32551435
0.60935205 -0.40478826 0.15902832 0.003929213 -0.17756881 1.0032305 0.30528292 0.3655977
-0.26193118 1.0114764 0.4372121 1.1341248 0.5892779 -0.4814608 0.89518887 0.047350794
-0.12952082
00000000: 9ce5 30bf ffe1 db3d 2ab3 7e3f 7d89 ca3e
00000010: 7163 a33e 84f9 ef3e eda0 e3bd 47f6 12bf
00000020: a720 0dbf 01c1 a6bf e317 40bf 1c95 7fbf
00000030: 3c25 c6bd 1270 173f 9d6d 7a3f 3e1b 883e
00000040: 0a77 7b3f aa36 ae3f 0bd2 89be 9c0a eabe
00000050: a8b1 6cbf 6744 3dbe 5ac9 213d 647e e33e
00000060: 67fc 883e e67a ca3f 949d e43f 2a32 ce3f
00000070: e2c0 69bf 2d80 f8be 5b62 be3f 4294 983e
00000080: 1517 3dbe d669 e7bd 8c3d 033f bd7f aa3e
00000090: 9dea f73c 68a3 c53e 2d66 8abd 90ad 373f
000000a0: ca3e d03e a0ae c43e 0e48 143f de6b d03e
000000b0: c09e 853e 97d5 f4be 20b5 cf3e 755d a73e
000000c0: 5523 ba3d 90d9 643f 3c33 4b3f 6cc3 f13d
000000d0: 0934 d73e 8dba ae3e f239 aa3d 99d6 39bf
000000e0: 1dc9 dabe 5a64 19bd ab1b 253f 39e5 183f
000000f0: c4c7 843f 6ce8 0e3f 7779 183f d1a9 a63e
00000100: 7ffe 1b3f 6840 cfbe 52d8 223e a1c0 803b
00000110: 99d4 35be db69 803f 0b4e 9c3e 9f2f bb3e
00000120: d81b 86be 0f78 813f 44da df3e 002b 913f
00000130: ebda 163f 0882 f6be 192b 653f e8f2 413d
00000140: 1ba1 04be

conv2.bias f4 [3]
0.0691413 -0.47989735 -0.7241195
00000000: f499 8d3d 1bb5 f5be e55f 39bf

fc2.weight f4 [10, 12]
-0.67247397 -0.23606066 0.12232598 0.6607798 -0.43824473 0.1170145 -1.8769281 -1.2241107
-0.7253102 0.40463823 1.0883771 0.7529775 0.561421 -0.36987555 -0.6630993 -0.37233195
-0.21343245 -0.68645024 0.766811 1.1332996 -1.2883705 -0.84183985 -0.08791638 -0.58568555
1.1251758 -0.627338 0.041193496 0.6030373 -0.18818915 0.3504397 -0.52636945 0.14384791
0.049977522 -0.503509 1.0086385 -0.08648374 1.1040246 -0.70816636 -0.13982564 -0.8808002
-0.15723461 0.40728596 1.8563689 -0.33381426 -0.3184739 0.3502233 -0.8186751 0.7865755
-1.5922605 -1.6656306 0.42411393 0.102867305 0.37121814 -0.6518274 -1.632892 0.27611986
0.4369848 -0.5483001 -0.89437836 -1.0176013 -0.7008912 1.3920932 0.11311472 -0.7374389
-0.66147393 -0.5024283 1.1748625 -0.2487668 0.05749641 0.46041116 -0.6440425 0.61368066
-1.4554632 1.2331383 0.5270107 0.59854275 -1.3227583 -0.7917185 -3.1681635 0.26801047
-0.88112974 -1.3066831 1.2030084 0.41694185 0.8362641 -1.0418888 -0.5003382 0.28187904
0.5246664 0.05652414 0.6048283 -0.5683939 0.73753273 0.83965063 -1.1653152 -1.2150849
-0.5572756 0.030375663 -0.17028478 -0.90504664 0.06882322 0.34901196 -1.348009 0.23359406
0.59521925 -0.03114976 0.9102514 -0.093670465 -0.88578916 -0.27337936 0.08724765 -0.65354717
0.4431854 0.81564593 0.11181917 -0.13649651 0.25585043 0.2676496 -1.5340555 -0.982238
00000000: 4127 2cbf e3b9 71be 0b86 fa3d dd28 293f
00000010: 9d61 e0be 4ca5 ef3d 2e3f f0bf a9af 9cbf
00000020: eead 39bf be2c cf3e f14f 8b3f 22c3 403f
00000030: 49b9 0f3f 5460 bdbe e0c0 29bf 4ba2 bebe
00000040: 098e 5abe 34bb 2fbf ba4d 443f f60f 913f
00000050: 53e9 a4bf d182 57bf 810d b4bd 7def 15bf
00000060: c305 903f 3999 20bf 83ba 283d a760 1a3f
00000070: a8b4 40be d56c b33e 26c0 06bf de4c 133e
00000080: 3bb5 4c3d f7e5 00bf 111b 813f 631e b1bd
00000090: ae50 8d3f 644a 35bf 742e 0fbe 1f7c 61bf
000000a0: 1c02 21be c987 d03e 7f9d ed3f b4e9 aabe
000000b0: 030f a3be 7850 b33e b194 51bf 035d 493f
000000c0: 31cf cbbf 6233 d5bf 7625 d93e 18ac d23d
000000d0: 4e10 be3e 29de 26bf 9b02 d1bf 955f 8d3e
000000e0: 79bc df3e 655d 0cbf fbf5 64bf c240 82bf
000000f0: 9b6d 33bf 1c30 b23f b1a8 e73d ccc8 3cbf
00000100: 5b56 29bf 249f 00bf e561 963f b9bc 7ebe
00000110: 5b81 6b3d 03bb eb3e f8df 24bf 2d1a 1d3f
00000120: 9e4c babf 7ad7 9d3f 2cea 063f 193a 193f
00000130: 2550 a9bf 10ae 4abf 31c3 4ac0 ab38 893e
00000140: b891 61bf 6441 a7bf 2efc 993f 6779 d53e
00000150: 6715 563f 9d5c 85bf 2a16 00bf 7352 903e
00000160: 8a50 063f db85 673d 07d6 1a3f 4382 11bf
00000170: f2ce 3c3f 58f3 563f 0c29 95bf e787 9bbf
00000180: 9da9 0ebf 62d6 f83c 225f 2ebe 23b1 67bf
00000190: 30f3 8c3d b2b1 b23e 8f8b acbf 4833 6f3e
000001a0: 4a60 183f c82d ffbc 3c06 693f 4dd6 bfbd
000001b0: 14c3 62bf 61f8 8bbe e5ae b23d de4e 27bf
000001c0: 32e9 e23e 2cce 503f 7301 e53d bec5 0bbe
000001d0: d4fe 823e 5e09 893e ee5b c4bf f373 7bbf

fc2.bias f4 [10]
-0.15254496 1.3526725 -3.6617284 -3.3577068 5.3879714 -0.5718646 2.9936664 0.07324356
-1.9518707 0.21886756
00000000: bf34 1cbe 5f24 ad3f c259 6ac0 abe4 56c0
00000010: 436a ac40 b865 12bf 3b98 3f40 b800 963d
00000020: e6d6 f9bf d11e 603e
