models/mnist_FC0/model.pth (torch, 34676 bytes, 6 tensors)

fc1.weight f4 [10, 784]
0	0xbcb1fa01	-0.021725656
1	0x3bfe726e	0.007765106
2	0xb97beedc	-0.00024026207
3	0xbbefc325	-0.007316964
4	0x3cd133f7	0.025537474
5	0xbc746761	-0.014917226
6	0xba32024a	-0.0006790502
7	0xbcf530fc	-0.029930584
8	0xbd0eee00	-0.034894943
9	0x3c20c9ca	0.009813735
10	0xbb2c4f37	-0.0026292333
11	0x3d106f5a	0.035262443
12	0x3d11d481	0.03560305
13	0x3c2e6b20	0.010645658
14	0x3caac153	0.020844137
15	0xbcb9fe05	-0.022704134
16	0xbcf3958e	-0.0297344
17	0xbc0bab1c	-0.008524682
18	0x3d1006dd	0.035162795
19	0x3b9fab0a	0.0048726844
20	0xbbe9e81c	-0.0071382653
21	0x3ce0e7a8	0.027454212
22	0xbbc70993	-0.0060741394
23	0x3ca36685	0.019946346
24	0xbc089ca5	-0.008338128
25	0x3d004854	0.031318977
26	0xbc1357a0	-0.008993059
27	0xbcddede8	-0.027090982
28	0x3ccb40a7	0.024811102
29	0x3c0310e5	0.007999633
30	0xbba66e1c	-0.005079044
31	0xbc85c8f5	-0.016331175
32	0x3c8fa8c6	0.017536532
33	0xbcdf4d00	-0.027258396
34	0xbbb593d1	-0.0055413027
35	0xbacdb185	-0.0015693164
36	0x3c9c440d	0.019075418
37	0x3d0aad1a	0.03385649
38	0x3ba9894d	0.005173838
39	0xbcc06607	-0.02348615
40	0x3c9a60f4	0.018845059
41	0xbc8964ea	-0.016771752
42	0xbca8ed71	-0.020621033
43	0x3c9c79b5	0.019101003
44	0x3cbeea9e	0.023305234
45	0xbc47530b	-0.012165795
46	0xbca94d39	-0.020666705
47	0xbd11a4e6	-0.03555765
48	0x3cfc2a92	0.030782018
49	0xbbbbbbef	-0.0057291905
50	0x3d00e142	0.031464823
51	0xbc7e9c96	-0.015540263
52	0xbd07a13f	-0.03311276
53	0xbc7af625	-0.0153174745
54	0x3ca166fe	0.01970243
55	0x3b97bd0a	0.0046306895
56	0xbc557e45	-0.013030593
57	0x3c82cad3	0.015965855
58	0x3d0f83ef	0.03503793
59	0x3cbf5cc6	0.023359668
60	0xbbbd2f50	-0.0057734624
61	0x3d02981e	0.03188335
62	0x3b6350ea	0.003468568
63	0x3c478133	0.0121768
64	0xbc8a8f97	-0.016914172
65	0xbcd32502	-0.025774483
66	0x3d242efe	0.040083878
67	0xbc316f8d	-0.010829818
68	0x3a349a27	0.00068894256
69	0x3d11e50a	0.03561882
70	0x3c059750	0.0081537515
71	0x3d1b80a7	0.03796449
72	0x3d46fce6	0.048581026
73	0xbc44243e	-0.011971531
74	0xbc79c00f	-0.015243544
75	0xbcb47e0f	-0.022032766
76	0x3cfe0229	0.03100689
77	0xbc856a33	-0.016285991
78	0x3cb4a81f	0.022052823
79	0x3c806388	0.01567246
80	0x3ca8d28a	0.020608205
81	0x3bc2f455	0.005949537
82	0xbc92efd0	-0.017936617
83	0xbc0a9d17	-0.008460305
84	0xbca455ec	-0.020060502
85	0x3cc921ee	0.024552312
86	0x3cae2a65	0.02126045
87	0x3cbad207	0.022805227
88	0xbcda6a25	-0.026661942
89	0x3cfc5fe7	0.030807449
90	0x39c9328c	0.00038375368
91	0xbc756abe	-0.014979063
92	0x3cdfb99a	0.027310181
93	0x3d95270d	0.07282839
94	0x3d83f2c2	0.06442787
95	0x3df6c831	0.12049902
96	0x3db3f5c0	0.087871075
97	0x3de9b006	0.11410527
98	0x3e0f4e8a	0.13994804
99	0x3dc1f569	0.094706364
100	0x3ddb6c3e	0.10714005
101	0x3d8abfa7	0.06774836
102	0x3d3caa5f	0.046060916
103	0x3cd2e862	0.025745574
104	0xbcfb089f	-0.03064376
105	0x3b2b6207	0.0026150958
106	0xbd5757ce	-0.05257397
107	0x3c83b76a	0.01607867
108	0xbc0adb3f	-0.008475124
109	0x3c1b9f8a	0.009498486
110	0x3aa847b2	0.001283875
111	0x3cf83cac	0.030302368
112	0x3c987b1e	0.018613394
113	0x3ce6bc7a	0.028166045
114	0x3cc7abec	0.02437397
115	0xbc1e22a5	-0.009651815
116	0xbca2f5be	-0.01989257
117	0x3b20ae8d	0.0024518103
118	0x3c95fa72	0.018307898
119	0x3d9236da	0.07139368
120	0x3d9451d6	0.072421715
121	0x3de4a7da	0.11164828
122	0x3e3855e8	0.1800152
123	0x3e4f9348	0.20271027
124	0x3e43322b	0.19062106
125	0x3e24c397	0.16090237
126	0x3e070d37	0.13188635
127	0x3db652c0	0.08902502
128	0x3d92f1fd	0.07175062
129	0x3d65436f	0.055972513
130	0x3d9eec9a	0.07759972
131	0x3badda63	0.0053055747
132	0xbca6e479	-0.020372616
133	0xbdbd688d	-0.09248457
134	0xbd93826c	-0.072026104
135	0xbd691a7a	-0.056910016
136	0xbc2b6878	-0.010461919
137	0x3cef0aff	0.029180048
138	0xbb9eb0a6	-0.0048428355
139	0x3c831eaf	0.016005842
140	0x3cc5540e	0.024087932
141	0xbc120ff7	-0.008914939
142	0xbca1b74d	-0.019740725
143	0xbc91b93f	-0.017788528
144	0x3cc7bd92	0.024382386
145	0x3d26d3fe	0.040729515
146	0x3d89b604	0.0672417
147	0x3d8811a2	0.06643988
148	0x3e21c273	0.15796833
149	0x3df3e5c5	0.119090594
150	0x3e363557	0.17793785
151	0x3e223fd7	0.15844665
152	0x3dec78d4	0.11546484
153	0x3e0dfc1d	0.13865705
154	0x3d671350	0.056414902
155	0x3dbf3713	0.093366764
156	0x3dac7816	0.08421342
157	0x3d0ad186	0.033891223
158	0xb9e1d592	-0.00043074467
159	0x3b515d71	0.0031946565
160	0xbca92250	-0.020646244
161	0xbd3b2980	-0.045693874
162	0xbdb9f719	-0.09080333
163	0xbe050050	-0.129884
164	0xbd94ec53	-0.07271638
165	0x3c678af7	0.014132253
166	0xbca25819	-0.019817399
167	0x3c773e8e	0.015090598
168	0xbb0a7237	-0.0021125206
169	0x3ccd9cfd	0.025099272
170	0xbcd459a5	-0.025921652
171	0x38a69798	7.943733e-05
172	0x3c8969bd	0.016774053
173	0x3d2ba4b9	0.04190514
174	0x3da741c3	0.0816684
175	0x3e08bb94	0.13352805
176	0x3dec0d51	0.115259774
177	0x3df734e1	0.12070633
178	0x3e229594	0.15877372
179	0x3e1852a5	0.14875276
180	0x3e26ccca	0.16289058
181	0x3e26eb71	0.16300751
182	0x3e344126	0.17602977
183	0x3e1e810c	0.15478915
184	0x3de54948	0.11195618
185	0x3e027dcc	0.127433
186	0x3dc5f233	0.096653365
187	0x38032933	3.1271204e-05
188	0x3d1b5587	0.037923362
189	0x3cb76e45	0.022391448
190	0xbd4953a4	-0.04915203
191	0xbe1307da	-0.14358464
192	0xbd33215a	-0.04373298
193	0xbcb5623c	-0.022141568
194	0xb99658a7	-0.0002867628
195	0xbd07625d	-0.03305279
196	0x3b875c2a	0.00413086
197	0xbcf34059	-0.02969377
198	0xbc085809	-0.0083217705
199	0x3b38069e	0.0028080116
200	0x3d8dbf2b	0.06921228
201	0x3d2bdf89	0.041961227
202	0x3e056253	0.13025789
203	0x3db3dcc2	0.087823406
204	0x3d987174	0.074435145
205	0x3dbfe612	0.09370054
206	0x3db0d3af	0.086341254
207	0x3e03ca84	0.12870222
208	0x3e027628	0.12740386
209	0x3e329831	0.17440869
210	0x3e63fdf2	0.22264841
211	0x3e197462	0.14985803
212	0x3e21bebb	0.15795414
213	0x3e00fa20	0.12595415
214	0x3dba83be	0.09107159
215	0x3da93b84	0.08263305
216	0x3db18850	0.08668578
217	0x3bf04a49	0.007333074
218	0xbc7b8112	-0.015350597
219	0xbdae2816	-0.085037395
220	0xbded365c	-0.11582634
221	0xbb7d8d8b	-0.0038689103
222	0x3cf976a9	0.03045209
223	0x3ca702e5	0.020387122
224	0xbc42e6b3	-0.011895823
225	0xbcdd93ef	-0.02704808
226	0xba008b1b	-0.0004903541
227	0x3c90179c	0.017589383
228	0x3d487962	0.048943885
229	0x3d746d79	0.059674714
230	0x3d5988d5	0.05310901
231	0x3c26dd36	0.010184577
232	0x3d243af9	0.040095303
233	0x3c9942e0	0.018708646
234	0x3da4df36	0.080503866
235	0x3d6c7aa7	0.057734158
236	0x3dec3f7f	0.115355484
237	0x3db50364	0.08838537
238	0x3e59db0a	0.21274963
239	0x3e254d29	0.16142716
240	0x3e373894	0.17892677
241	0x3e0bb5cb	0.13643567
242	0x3dd93753	0.106062554
243	0x3daf4580	0.08558178
244	0x3e00ce1e	0.12578627
245	0x3d2af624	0.041738644
246	0x3d70d76c	0.058799192
247	0xbd3efcc3	-0.04662777
248	0xbdb60f8d	-0.08889685
249	0xbd63925d	-0.055559505
250	0xb9873ef9	-0.00025796125
251	0xbb9621b0	-0.0045816526
252	0x3c1a193b	0.0094054295
253	0xba616b2e	-0.000859904
254	0x3cde63f8	0.027147278
255	0x3d2ff6cb	0.04295997

fc1.bias f4 [10]
0	0x3d0343c1	0.032047037
1	0x3ea8f7b6	0.33001488
2	0x3eb486b2	0.35259014
3	0x3cd7cf89	0.026344078
4	0x3e2d28ac	0.16910046
5	0x3e59f0b3	0.21283226
6	0x3ebae68e	0.36504024
7	0xbcf2b666	-0.02962799
8	0xbe33d628	-0.17562163
9	0xbd097516	-0.033558927

fc2.weight f4 [10, 10]
0	0xbe94dd47	-0.2907507
1	0x3e482ff0	0.19549537
2	0xbe53b2e6	-0.20673713
3	0xbe31afb4	-0.17352182
4	0x3c8abea9	0.016936617
5	0x3e885a44	0.26631367
6	0x3e309e86	0.17247972
7	0xbe968025	-0.29394642
8	0xbea32d3d	-0.31870452
9	0x3e0b21b4	0.13587075
10	0x3f5927a7	0.8482613
11	0x3e6bba66	0.23020324
12	0x3f06e3f5	0.52691585
13	0xbee2c500	-0.44290924
14	0xbe27a4f0	-0.16371512
15	0xbec69c9a	-0.38791353
16	0x3e74be87	0.23900805
17	0xbe485915	-0.19565232
18	0x3f87563d	1.0573193
19	0xbd491b36	-0.049098216
20	0xbd77c74d	-0.060492802
21	0xbf0ca3ab	-0.5493724
22	0x3e976264	0.29567254
23	0x3f421b19	0.758226
24	0x3eebb591	0.46036962
25	0x3ee626f5	0.44951597
26	0x3f75e3a6	0.9605049
27	0x3eea0837	0.45709392
28	0x3ec11af7	0.37715885
29	0x3d6ccb8f	0.057811316
30	0x3d948805	0.07252506
31	0x3edbcde4	0.4293052
32	0xbe5b8fe4	-0.21441609
33	0x3ebd6537	0.36991283
34	0x3e83e324	0.25759232
35	0xbf4005e0	-0.75008965
36	0xbf2bc10a	-0.6709143
37	0x3f8abc9d	1.083881
38	0x3cdb8568	0.026797011
39	0xbd42f279	-0.04759452
40	0xbed108ec	-0.4082712
41	0xbdc4686a	-0.09590228
42	0x3ea3cddd	0.31993
43	0xbe8480c0	-0.25879478
44	0xbf2a8cf8	-0.6662135
45	0x3f367b36	0.71281755
46	0xbf4f0696	-0.80869424
47	0x3e6b11b3	0.2295597
48	0x3e433010	0.19061303
49	0x3f8c45dd	1.095882
50	0x3f159741	0.5843392
51	0xbd904530	-0.070444465
52	0xbe79c1d4	-0.24390346
53	0x3f0ce595	0.55037814
54	0xbba1c514	-0.0049368236
55	0x3e971e53	0.29515323
56	0x3dbd3ce5	0.0924013
57	0x3f6cf1ba	0.92556345
58	0x3ee1d3bd	0.44106856
59	0xbececa3b	-0.40388665
60	0x3f7b6f83	0.9821703
61	0xbe181551	-0.14851882
62	0x3f875f97	1.0576047
63	0x3e9f7724	0.31145585
64	0x3f444afc	0.7667692
65	0xbe69b790	-0.2282393
66	0xbe1d310f	-0.15350746
67	0xbe813974	-0.25239146
68	0xbebe00bc	-0.37109935
69	0x3eac5e5c	0.3366574
70	0x3f1ade84	0.6049578
71	0x3f61c632	0.8819305
72	0xbf08ae17	-0.5339064
73	0xbf1e135c	-0.6174829
74	0xbe24694a	-0.1605579
75	0x3f044c7e	0.5167922
76	0x3f5dfdcf	0.86715406
77	0xbe91b40c	-0.28457677
78	0xbe8770ea	-0.26453334
79	0x3f151805	0.58239776
80	0xbe9af910	-0.30268145
81	0xbe0eefc0	-0.13958645
82	0x3e4cc724	0.19997841
83	0x3dc3960a	0.09550102
84	0xbd39892d	-0.045296837
85	0x3dec8649	0.1154905
86	0xbd8e0c50	-0.06935942
87	0xbddcb5de	-0.10776876
88	0x3d88c267	0.06677704
89	0xbe69f2c9	-0.22846521
90	0xbf3f05ea	-0.746184
91	0x3f458243	0.7715189
92	0x3f761e3b	0.9613988
93	0x3f16dadb	0.58927697
94	0xbd94d72b	-0.072676025
95	0x3f354368	0.7080598
96	0x3cbe903a	0.023262132
97	0x3ccecee9	0.025245147
98	0xbcec2485	-0.028826008
99	0xbefbbf58	-0.4916942

fc2.bias f4 [10]
0	0x3e2a99f4	0.16660291
1	0xbebe6d20	-0.3719263
2	0xbe68b9b4	-0.2272709
3	0x3f23a190	0.639184
4	0x3e5f8d50	0.2183125
5	0x3ed95c0e	0.42453045
6	0x3f0a1d8f	0.5395135
7	0x3ed24a8c	0.410725
8	0xbe9aaa51	-0.30208066
9	0xbd9a6750	-0.075392365

fc3.weight f4 [10, 10]
0	0x3e95cffd	0.29260245
1	0x3f3c7422	0.73614705
2	0xbdd2b5d2	-0.10288586
3	0xbf6ab0fb	-0.916763
4	0xbdcefa84	-0.10106376
5	0xbf00629b	-0.5015046
6	0x3f77ab52	0.9674579
7	0xbee48c9d	-0.4463853
8	0x3e9ccec7	0.3062651
9	0xbeb20ede	-0.34776968
10	0x3df4ac91	0.11946977
11	0xbf320169	-0.695334
12	0xbf1a9ba4	-0.6039374
13	0x3f8a6da1	1.0814706
14	0xbe13c98b	-0.14432351
15	0x3ee6fc4a	0.45114356
16	0xbf2573da	-0.646299
17	0xbdf287ec	-0.11842331
18	0xbe974d9e	-0.29551405
19	0x3b2e7695	0.0026620973
20	0x3e9864de	0.29764456
21	0x3e6a28a5	0.22867067
22	0x3ebe4124	0.37159073
23	0x3e17f71c	0.14840358
24	0xbeee362b	-0.46525702
25	0x3f6c1f06	0.9223484
26	0x3ecc6491	0.39920476
27	0xbf239d3e	-0.6391181
28	0x3e7e39a8	0.24826682
29	0xbf0d6081	-0.5522538
30	0xbde50686	-0.11182885
31	0x3f2edc60	0.68305016
32	0xbf6a5157	-0.91530365
33	0x3ead6b00	0.33870697
34	0xbe84b107	-0.2591631
35	0xbbc71514	-0.0060755108
36	0x3dc89fdb	0.09796115
37	0x3f2683ba	0.6504475
38	0x3ce3c2d4	0.027802862
39	0xbea90c88	-0.33017373
40	0x3d7806e5	0.06055345
41	0xbf51d022	-0.8195821
42	0x3f3d7f58	0.74022436
43	0xbef7683d	-0.48321715
44	0x3e27d298	0.16388929
45	0x3e56439d	0.2092423
46	0xbed881ba	-0.42286474
47	0xbd0d6d2c	-0.034527943
48	0xbe65665c	-0.22402328
49	0x3f343f99	0.7040954
50	0xbd1d3d16	-0.038388334
51	0xbee0edb6	-0.4393136
52	0xbefd64bf	-0.49490926
53	0xbcbace46	-0.022803437
54	0x3f1576b0	0.5838423
55	0xbf093d8c	-0.5360954
56	0x3f46b5ea	0.7762133
57	0x3e8fcee2	0.28087527
58	0x3e3137dc	0.17306465
59	0x3bb2101e	0.00543405
60	0xbe1a9ac0	-0.15098095
61	0x3ddb88bc	0.107194394
62	0x3e3c3a27	0.18381558
63	0x3e14022a	0.1445395
64	0xbe94899e	-0.29011244
65	0x3b0a201b	0.0021076265
66	0xbcc81482	-0.024423841
67	0xbf8c3aca	-1.0955441
68	0xbdfbd98b	-0.122973524
69	0x3f91a0c8	1.1377192
70	0x3e6f0454	0.23341495
71	0xbcf17854	-0.029476322
72	0x3f2a3bf6	0.66497743
73	0x3e911343	0.28335008
74	0xbf868e7c	-1.0512233
75	0xbe8e66b3	-0.27812728
76	0xbcee0bfa	-0.029058445
77	0x3f64a437	0.8931307
78	0xbe698e86	-0.22808275
79	0xbf164dd1	-0.5871249
80	0xbeb01249	-0.3438895
81	0x3e7a5b53	0.244489
82	0x3e0200f1	0.12695672
83	0x3e22a493	0.15883093
84	0x3f92caa8	1.1468096
85	0xbe990881	-0.298893
86	0xbf15cbfc	-0.5851438
87	0xbd9ad162	-0.07559468
88	0xbe95ec9b	-0.29282078
89	0xbf265b26	-0.6498283
90	0xbe4632f5	-0.19355376
91	0x3f0906bb	0.53525895
92	0x3e105a8c	0.14097041
93	0xbf3b70f0	-0.73219204
94	0x3e5e9c58	0.21739328
95	0x3e151b92	0.14561298
96	0xbf7798f8	-0.96717787
97	0x3f2532bc	0.6453054
98	0x3c81f8c9	0.0158657
99	0xbd08eeaa	-0.033430733

fc3.bias f4 [10]
0	0xbe1a21f3	-0.15052013
1	0x3f4650f8	0.774673
2	0xbcdba122	-0.026810233
3	0x3e3a6c5a	0.18205395
4	0xbd3d18d7	-0.046166267
5	0x3ecfd2b0	0.4059043
6	0xbea75581	-0.32682422
7	0x3e37fbdf	0.17967175
8	0xbb9f3983	-0.004859151
9	0xbe1e8e26	-0.15483913
