models/mnist_CNN2/model.pth (torch, 11279 bytes, 8 tensors)

conv1.weight f4 [3, 1, 4, 4]
000000 65 7a 7c 3e f7 76 01 3f 80 ae cf 3e 87 ca 04 3f
       0.24656065 0.5057215 0.4056282 0.5187153
000010 13 1d b0 3e ed 88 39 3f b2 da 4e 3f 3b f7 fc 3e
       0.34397182 0.7247456 0.8080245 0.49407372
000020 6b b1 f4 3e 9d b4 47 3f d2 8b 26 3f 1c 56 dc 3e
       0.4779161 0.7800997 0.650571 0.43034446
000030 3a 1d f1 3e de 8e cd 3e 4a 66 b4 3e b2 33 0b 3d
       0.4709261 0.40148062 0.3523429 0.033984847
000040 e1 ff 72 3e 32 9c f7 3e 60 b5 f9 3e 56 8c db 3e
       0.23730423 0.48361355 0.4877119 0.42880505
000050 5b e8 01 3f 19 63 47 3f 72 d1 4a 3f a9 d1 f7 3e
       0.5074517 0.77885586 0.7922584 0.48402146
000060 1a 68 ff 3e 57 6e 37 3f a5 3b 27 3f 0d c8 af 3e
       0.4988411 0.7165274 0.65325385 0.34332314
000070 24 af cf 3e 8d ce cc 3e d3 36 e2 3e 6d 7c 3f 3e
       0.4056331 0.40001336 0.44182453 0.18699808
000080 69 2a 75 3e 02 47 06 3f 8e a0 07 3f 53 ab c7 3e
       0.2394196 0.524521 0.5297936 0.38997898
000090 5b 4a dd 3e 05 24 3c 3f ce b2 43 3f 38 a4 c3 3e
       0.4322079 0.7349246 0.7644471 0.38211226
0000a0 35 91 1a 3f 39 86 42 3f 9c 68 f3 3e 71 71 cd 3e
       0.6037782 0.7598606 0.47540748 0.4012561
0000b0 22 18 e7 3e f1 96 87 3e af 46 5d 3e 97 1a ac 3d
       0.451356 0.26482347 0.21608995 0.08403509

conv1.bias f4 [3]
000000 4b ac c8 b9 21 05 42 3c c1 3f 64 3c
       -0.0003827534 0.011842043 0.013931216

conv2.weight f4 [3, 3, 3, 3]
000000 8f ed 5e 3e da c9 9e 3e a7 14 bb 3e e8 3e ea 3e
       0.21770309 0.31013376 0.36539194 0.4575112
000010 82 59 9d 3e 1e 30 a7 3e e6 9c 78 3e 58 09 78 3e
       0.30732352 0.32653898 0.24278602 0.24222314
000020 e3 2d 0d 3e 4a f5 78 3e b4 91 a5 3e 2c b7 78 3e
       0.13787036 0.2431232 0.32337725 0.24288625
000030 d5 de b4 3e 45 4e ae 3e 52 47 a6 3e 73 9a 9e 3e
       0.35326257 0.3404409 0.32476288 0.3097721
000040 17 ae 99 3e 71 ea 7b 3e c0 fb 61 3e 28 17 36 3e
       0.30015633 0.24601151 0.22068691 0.17782271
000050 17 e1 b4 3e 19 5d 82 3e 28 e2 d9 3e 56 d7 4a 3e
       0.3532798 0.25461653 0.42555356 0.19808707
000060 ac 3a 8a 3e 86 cd 89 3e ae 32 a8 3e 0c f4 d7 3e
       0.26997888 0.26914614 0.32851166 0.4217838
000070 a1 32 08 3f ba ce c6 3e e8 4d eb 3e 46 90 04 3f
       0.53202254 0.38829595 0.45957875 0.51782644
000080 c7 b1 e6 3e 26 c1 cc 3e 19 3e 93 3e 49 c0 84 3e
       0.45057508 0.3999111 0.28758314 0.25927952
000090 d9 ca cb 3e c8 d5 02 3f d4 af dd 3e bd c6 ea 3e
       0.39803198 0.51107454 0.4329821 0.4585475
0000a0 aa 01 0a 3f 4a 43 c9 3e 61 95 a8 3e fa fd 9d 3e
       0.5390879 0.3930915 0.32926467 0.3085783
0000b0 28 bf 28 3e 48 57 d2 3e 9e 76 e5 3e 1c b9 c3 3e
       0.1647917 0.41082215 0.4481706 0.38227165
0000c0 f5 b3 ef 3e 66 89 13 3f 61 6c ff 3e 0d a1 82 3e
       0.46816984 0.5763153 0.49887374 0.25513497
0000d0 2b 74 93 3e 8d d1 6c 3e 40 7c 9a 3e 0d 2c d3 3e
       0.28799567 0.23126812 0.3017292 0.41244546
0000e0 88 f9 c5 3e 5d 60 ee 3e f6 47 0b 3f 91 55 ee 3e
       0.3866694 0.46557894 0.5440668 0.46549657
0000f0 63 0e c4 3e 99 6d db 3e 95 1e a3 3e c8 f8 90 3e
       0.38292226 0.42857054 0.3185927 0.28314805
000100 6e 2f c7 3e b7 2c d3 3e fc 1e e3 3e 3e fb 09 3f
       0.38903373 0.41245052 0.44359577 0.5389899
000110 64 a8 e2 3e fc 93 c6 3e 03 c5 cf 3e c2 de 9f 3e
       0.44269097 0.38784778 0.40579996 0.31224638
000120 8c e7 42 3e 41 44 af 3e 51 e3 b9 3e 23 4d b4 3e
       0.1903364 0.3423176 0.3630624 0.352151
000130 ed 8d f7 3e ea e5 e0 3e db 79 c4 3e 2f 9b d1 3e
       0.48350468 0.4392541 0.38374218 0.40938708
000140 75 db bd 3e
       0.37081495

conv2.bias f4 [3]
000000 e0 f9 fc 3d 99 d8 a1 bd af 76 9b bd
       0.123523474 -0.07902641 -0.075909965

fc1.weight f4 [10, 192]
000000 af 81 4d 3c 34 e6 82 bc 49 3a 38 bd ca 0d c5 bd
       0.012543126 -0.01597891 -0.04497746 -0.09621771
000010 55 49 bd bd 90 6c 54 bd 07 1e 4d bd 18 8c b5 bb
       -0.092425026 -0.051861346 -0.050077464 -0.005540382
000020 e3 e7 c9 bc 3d 90 c8 bd 43 f9 de 3a 0d 2a 3c 3d
       -0.024646705 -0.09793136 0.0017011542 0.04593854
000030 41 5d 4b 3d 98 8f ce 3d ea 65 80 bc f1 c9 6a 3d
       0.04964948 0.10085982 -0.015673596 0.057321493
000040 cd d4 f0 bc f1 86 43 bc ab 99 2c 3e 06 7f 24 3e
       -0.029398346 -0.011934028 0.16855495 0.1606408
000050 3d 4a ee 3d fa 3b c2 3d 58 07 1a 3d d8 e2 80 3e
       0.116352536 0.09484096 0.03760466 0.25173068
000060 60 42 3e 3d 17 a5 1d 3e b4 ce 9b 3d 3d b6 9c 3d
       0.04645002 0.15395008 0.07607785 0.07651947
000070 d8 3a 37 be a1 72 59 bd 31 28 93 3d dd a4 00 3e
       -0.17893541 -0.053087834 0.071854 0.1256289
000080 db 10 16 bd c6 6c 4a 3c fd 66 98 bc 02 e9 7f bc
       -0.03663717 0.012355035 -0.018603796 -0.015619518
000090 8f 50 39 be 86 05 87 bc 42 ef f6 b9 97 29 8d ba
       -0.18097137 -0.016482126 -0.00047099037 -0.0010769841
0000a0 a6 22 61 bd 6a d6 1d bd a8 d1 4f bc 77 9c be bc
       -0.054964684 -0.03853456 -0.012684263 -0.023267968
0000b0 7f 13 a1 bd 09 4f 91 3d 31 ed a9 bd 3f 88 e7 3c
       -0.07865047 0.07095153 -0.08297194 0.02826321
0000c0 ed ec 00 bd fb 36 48 bd 34 b9 e9 3d 06 97 29 3e
       -0.03147595 -0.04888056 0.11412278 0.16561517
0000d0 86 14 dc 3c 42 07 31 bc f5 6d e6 3b 94 2e e9 3d
       0.026865255 -0.010804953 0.007032151 0.11385837
0000e0 6d 4c 9f bc a4 81 a7 bb ae ab 4b 3c fe 01 14 3e
       -0.019445622 -0.00511189 0.012431068 0.14453885
0000f0 0c 15 37 3e 99 15 c8 3c 21 5f aa 3d 2a bf df 3d
       0.17879122 0.024424361 0.08318926 0.109251335
000100 65 ca 1c ba 7b b7 17 bd 04 74 70 bd cb bd d6 bd
       -0.0005981087 -0.037040215 -0.05870439 -0.10485419
000110 4d 79 cb bc dc 13 76 bd 65 7a a8 bd 8c cf a5 bc
       -0.024838114 -0.060077533 -0.0822647 -0.020240568
000120 6c 96 51 bd 6a 7e 0e be 3e 27 e3 bc 0c c5 13 3d
       -0.051168844 -0.1391541 -0.027728673 0.03607659
000130 e3 1d 7b 3d b0 b6 c6 3d 03 1b 0b 3d d0 5e 20 3d
       0.0613078 0.097028136 0.033961307 0.03915292
000140 b6 2c 76 bd 0f cc 23 bd 90 35 06 3e 71 c7 44 3e
       -0.060101233 -0.039989527 0.1310637 0.19216706
000150 7d 18 a2 3d 2a b0 87 3d 29 16 07 3d bf 8e 2c 3e
       0.07914827 0.066253975 0.032980118 0.16851328
000160 73 5a 33 3d 29 eb e4 3d 48 cc 1c 3e 9a 85 2c 3e
       0.04378743 0.11177666 0.15312302 0.1684784
000170 d6 e8 14 be 60 9d c4 bd 87 aa c0 3d 7f d7 71 3e
       -0.14541945 -0.096003294 0.094075255 0.23617361
000180 34 27 39 bd a7 c9 36 3c ee 4d f4 3c b1 2e d4 bc
       -0.045203403 0.011156476 0.029822316 -0.02590117
000190 66 43 7c be 4e 92 6d bc 0b e6 c1 b9 3d d8 23 3a
       -0.24635085 -0.014500214 -0.00036983224 0.00062501786
0001a0 83 35 f6 bd 76 c7 ed 3b f2 ac 93 3d b6 d8 bd 3c
       -0.12021925 0.0072564436 0.07210721 0.023174625
0001b0 b4 d1 0e be 33 49 12 3d cf dd b9 bc 32 18 bc bc
       -0.13947183 0.03571434 -0.022688774 -0.022960756
0001c0 0d 17 0b bd 87 f6 47 3d 1c 58 31 3e 19 e4 12 3e
       -0.03395753 0.04881909 0.17318767 0.14344825
0001d0 c7 90 c1 3d 78 df 19 bd 43 b8 23 3d 03 43 10 3e
       0.09451442 -0.037566632 0.039970648 0.14088063
0001e0 42 82 42 bd 9c 65 61 bd cc 73 8d 3d 8d 6b 2b 3e
       -0.047487505 -0.055028543 0.06906852 0.16740246
0001f0 86 9a 12 3e 56 d9 a7 3d f5 9b a0 3d e5 5d e4 3d
       0.14316759 0.081957504 0.078422464 0.111507215
000200 bd 93 ef ba 8c f7 2f bd 1a 7c aa bd f1 d9 06 be
       -0.0018278282 -0.04296069 -0.08324452 -0.13169076
000210 07 73 94 bd ee 57 67 bd 3b b7 43 bd e1 c7 46 bc
       -0.07248502 -0.05648034 -0.047782164 -0.012132616
000220 b6 68 73 bd e0 c0 18 be 51 8e f5 bc 95 74 31 3d
       -0.059426032 -0.14917326 -0.029975088 0.043324072
000230 06 84 99 3d b2 94 9c 3d df ba 77 3d 35 07 15 3d
       0.074958846 0.07645549 0.06048095 0.036383826
000240 10 be 7e bd 39 fa 0a bd c7 93 05 3e 0f 39 49 3e
       -0.062192976 -0.033930037 0.13044654 0.19650672
000250 5f a1 e3 3d 09 a9 82 3d 8d 3d ba 3d f9 f7 45 3e
       0.111147635 0.06379897 0.09093771 0.19332875
000260 f0 c6 a6 3c c1 92 05 3e 7c ea c8 3d 60 43 1c 3e
       0.020358533 0.13044263 0.09810349 0.15260077
000270 fb c8 51 be e0 a0 72 bd de 9e a8 3d 29 77 54 3e
       -0.20486824 -0.059235454 0.082334265 0.20748581
000280 d4 12 1d bd 2c 70 9e 3d 8d a9 80 3c 1c 29 47 bd
       -0.038348034 0.07736239 0.015705848 -0.04862319
000290 72 5b 5d be bb 64 04 3b 07 a8 b2 3b da 96 80 3c
       -0.21616915 0.0020201642 0.0054521593 0.015696932
0002a0 30 1e c5 bd 02 7f 3e 3c f9 f2 93 3d c3 c2 5e 3c
       -0.096248984 0.011626961 0.07224078 0.0135962395
0002b0 d2 15 f5 bd 77 73 94 3d e9 1a 10 bc c4 93 17 3d
       -0.119670525 0.07248586 -0.008795478 0.037006155
0002c0 9b aa 33 bd 5d e5 50 3d 95 eb c7 3d 4d eb bd 3d
       -0.043863874 0.050999988 0.097617306 0.09273396
0002d0 b6 99 6f 3d ee 7f 59 bc cc a7 ab 3c 9e 76 d2 3d
       0.0584962 -0.01327513 0.020954035 0.10276531
0002e0 1a 97 56 bd 54 08 a8 bc d9 ac 17 3d 40 c3 0d 3e
       -0.052390195 -0.020511784 0.037030075 0.13844013
0002f0 95 eb e6 3d 43 bf 66 3c 06 d9 89 3d 13 95 c5 3d
       0.112754025 0.014083686 0.06730847 0.09647574
000300 26 b0 a1 3b b3 9a 40 3c 4a 1b a1 3d b9 ae 8b 3d
       0.0049343286 0.011755633 0.07866533 0.06820435
000310 ae 88 c0 3c b8 b4 d8 bc 36 22 14 3b f2 1a 30 3d
       0.023502674 -0.02645336 0.00226034 0.042994447
000320 39 45 93 bc 9d 0c f3 bc ea 79 38 3c 7b 7b bf bc
       -0.017977344 -0.0296691 0.011259535 -0.02337431
000330 64 56 3e 3c 9e cc 2a bd 60 5c 8c bb 69 34 a6 3c
       0.011617277 -0.041699044 -0.004283473 0.020288663
000340 05 b4 2d bb 7f 50 01 3d ae 39 b8 3c 6a f6 d3 3d
       -0.0026505005 0.031570908 0.022488441 0.10349734
000350 79 ea 9a 3d aa a6 8d bb 19 a8 61 bd 3f 1e 97 bd
       0.07564253 -0.0043228464 -0.05509195 -0.07378816
000360 46 75 8c bb 4b 9e 22 be 0a cf fa bd da 83 1a be
       -0.004286441 -0.15880696 -0.12246521 -0.1508936
000370 8f 4f 2f be 26 b5 04 be 11 5c 86 bd 55 ad fe bc
       -0.17120193 -0.12959728 -0.06560529 -0.03108851
000380 2e 9d c2 bc 6b ad a3 bd cc 91 93 3d ab 93 9d bd
       -0.02375659 -0.07992061 0.07205543 -0.07694181
000390 40 7e 86 bd af ed 95 bd 88 9a 5c bd de 5c 9a bc
       -0.06567049 -0.07320725 -0.05385831 -0.01884311
0003a0 6c 48 16 3c 59 cb ca 3d 10 e7 58 bc 8a ab a6 3d
       0.00917254 0.09902067 -0.013238683 0.08138187
0003b0 93 bc 40 3e b8 97 fe 3c 7a 0a 25 bd 16 0e bc 3d
       0.18821935 0.031078205 -0.040293194 0.09182374
0003c0 30 0f 59 bc df 72 ba 3c d2 26 4d 3c 9c 17 f8 3d
       -0.01324825 0.022759853 0.0125214625 0.12113878
0003d0 ae 12 03 bc 2e 1d 2c 3c 78 73 be 3d 98 ab c5 3d
       -0.008000059 0.010505004 0.09299368 0.096518695
0003e0 e9 02 a5 3c de 33 a2 bc e8 aa 06 3c f9 56 05 3c
       0.02014299 -0.019800123 0.008219458 0.008138412
0003f0 ff 20 98 bd 65 a0 e9 3c 11 a0 c7 3d f3 34 bf 3d
       -0.074281685 0.028518865 0.09747327 0.09336271

fc1.bias f4 [10]
000000 c8 8f 77 3d 2b 08 cc 3c 49 99 ec 3c 01 1a fa bb
       0.060439855 0.024906239 0.028881686 -0.0076324944
000010 76 3b cd 3d 34 31 47 bd 42 17 c7 3c 7f 6e 89 3d
       0.10021107 -0.048630908 0.024303082 0.067105286
000020 13 a3 63 3c 93 67 11 be
       0.01389386 -0.14199667

fc2.weight f4 [10, 10]
000000 b0 7b e6 3e ca 35 0e be 50 42 d7 3b 98 c7 05 3c
       0.4501624 -0.13887706 0.0065691844 0.008165263
000010 4f cf cf be 95 7c 28 be 86 55 ed 3d 21 1c 5c be
       -0.4058785 -0.16453774 0.11588578 -0.21495105
000020 fe 9a 37 bd ed 8e af bd 08 d2 a3 be ae d0 7e bc
       -0.044825546 -0.08572183 -0.3199618 -0.015552683
000030 bf 58 ac bd e1 13 77 be 0e 67 c9 3e 71 5d 6e 3e
       -0.084153645 -0.24128677 0.39336437 0.23277833
000040 1b 4d 4a be 0a 2e 60 bd 85 f5 fb bc e3 45 79 bd
       -0.19755976 -0.054731406 -0.030756721 -0.060857665
000050 ee a8 5e 3d 9a 56 e4 3e 48 6a 0e 3e 27 03 7f be
       0.054360323 0.44597322 0.1390773 -0.24903546
000060 a0 a3 79 be e3 ad 9b 3b 5a bf 57 3e 1c 0a 44 be
       -0.24378824 0.0047509535 0.21069089 -0.19144481
000070 97 1c 86 3b 9f 54 8c 3e 9e 0d ad bd 35 24 4b be
       0.0040927636 0.2740831 -0.08449863 -0.1983803
000080 9b 90 2e be fe 30 62 bd 6c fd 91 be a3 61 06 bd
       -0.1704735 -0.055222504 -0.28513658 -0.032807957
000090 94 4f 48 3e 73 37 00 be 89 5f e7 3e 86 24 7d bd
       0.19561607 -0.12521152 0.45190075 -0.06180241
0000a0 9e 65 6c be 64 6a bf bd 45 bc c6 3e e8 03 1f 3e
       -0.23085639 -0.09346464 0.38815513 0.15528834
0000b0 bc 27 12 bb 41 2f 51 be a2 b3 28 3e 56 13 8c 3e
       -0.0022301516 -0.20428182 0.16474774 0.27358502
0000c0 d0 ce 0f be b5 83 85 be 59 61 42 3e 5f 72 ed 3b
       -0.14043736 -0.26077047 0.18982448 0.0072463
0000d0 5e 20 bd bb 3a 0a ff 3d b6 8d 7b 3d e1 83 d1 bd
       -0.0057716807 0.124531224 0.061414443 -0.10230232
0000e0 ec a8 2a 3e 49 3e 14 bd 3f 08 84 3d 48 d6 bb be
       0.16666001 -0.036192212 0.06446885 -0.3668692
0000f0 81 2c 03 3e 61 a7 4a 3d 08 bb 6e 3e d2 77 c1 3e
       0.12809946 0.04947603 0.23313534 0.37786728
000100 34 b8 3e be 73 00 b0 3e 16 68 8c be de be 9a be
       -0.18624955 0.34375343 -0.2742316 -0.30223745
000110 eb 35 8c be c5 88 ec bc 41 48 cc 3d 43 df 3a 3d
       -0.27384886 -0.02887381 0.09974719 0.045623075
000120 60 28 7c 3e a3 55 f7 bd e6 7a 22 be 75 dd e9 be
       0.24624777 -0.12076881 -0.15867195 -0.4567677
000130 92 08 c2 be 8f 61 a2 3e 93 e0 58 3e 2d 64 5e 3e
       -0.37897164 0.31715056 0.21179418 0.21717902
000140 52 0d d2 3d 0a f4 78 be 24 04 f1 bc d7 07 73 3d
       0.10256447 -0.24311844 -0.02942092 0.05933365
000150 ba 82 58 3c 36 66 b4 3d 0c d5 83 3d d1 75 cc 3d
       0.013214761 0.08808558 0.0643712 0.09983409
000160 2d 87 85 bb 9c 09 f7 3c 7f 5e 4d bd c7 e4 fc bc
       -0.004074952 0.03015595 -0.050138947 -0.030870808
000170 b8 eb 2f 3e ce db 59 be 49 7e 38 be 3d c0 01 3e
       0.17179763 -0.21275255 -0.18016924 0.1267099
000180 3b b9 db bb ec 20 bc 3e 77 33 f4 3b 70 0b 9b be
       -0.006705431 0.36743867 0.007452424 -0.30282164

fc2.bias f4 [10]
000000 54 9f 33 be 6e e9 4a 3e 7c d9 70 3c e4 2c 7d bc
       -0.17541248 0.19815609 0.01470029 -0.015452597
000010 b2 c1 c0 bd 9b ec 6d 3e 95 ac 2c be 92 94 d2 3d
       -0.094119444 0.23234789 -0.1686271 0.10282244
000020 95 52 41 be c5 ed 05 3d
       -0.18879159 0.032697458
