models/fmnist_CNN1/model.pth (torch, 6907 bytes, 8 tensors)

conv1.weight f4 [6, 1, 4, 4]
0	0x3e0093b1	0.1255634
1	0x3ee8bcbc	0.45456493
2	0x3f314d01	0.69258124
3	0x3d898f88	0.067168295
4	0x3ed02f1f	0.4066095
5	0x3f565986	0.8373035
6	0x3f8d8b5f	1.1058158
7	0x3f0d295b	0.5514123
8	0x3ef211f1	0.47279313
9	0x3f647a68	0.8924928
10	0x3f9169d5	1.1360422
11	0x3f14305a	0.5788628
12	0x3ec4a538	0.38407302
13	0x3ef5a8e1	0.47980407
14	0x3f14aa40	0.5807228
15	0x3e0e9275	0.13923056
16	0x3e5f3850	0.21798825
17	0x3e8ceaa5	0.2752277
18	0x3e8d60bc	0.27612865
19	0xbe25ebcb	-0.16203229
20	0x3ef72f55	0.482783
21	0x3f2ca458	0.6743827
22	0x3f24ff9c	0.6445253
23	0x3e507ccc	0.20360106
24	0x3f1da6b7	0.6158251
25	0x3f428645	0.7598613
26	0x3f2fcb5e	0.6866969
27	0x3e23756b	0.1596276
28	0x3efbf078	0.492069
29	0x3ebf0e47	0.3731558
30	0x3e89d8cd	0.26923218
31	0xbe29739f	-0.16548012
32	0x3ee6acbf	0.4505367
33	0xbdf7a966	-0.12092857
34	0xbeece88d	-0.46271172
35	0xbd6e2a2e	-0.058145694
36	0x3ef08a78	0.46980643
37	0xbdf83573	-0.1211957
38	0xbf2f26bf	-0.68418497
39	0xbe1f37f7	-0.15548693
40	0x3eb2dd0d	0.34934273
41	0xbdbca55d	-0.09211228
42	0xbf09b955	-0.5379842
43	0xbdb4eff7	-0.08834832
44	0x3edb350f	0.42813918
45	0x3def22d5	0.116765656
46	0xbe735bd9	-0.23765506
47	0x3de0c9f4	0.109760195
48	0x3e29f941	0.16598989
49	0xbe203443	-0.15644936
50	0xbeb290be	-0.34876055
51	0x3df222c9	0.11823041
52	0x3ead1c07	0.33810446
53	0xbe8c61e4	-0.27418435
54	0xbedcefd9	-0.4315174
55	0x3e3d85d4	0.18508083
56	0x3e34d3f3	0.17658977
57	0xbe7080f1	-0.23486687
58	0xbef64cc3	-0.4810544
59	0x3e4f0311	0.20216013
60	0x3e5481a6	0.20752582
61	0xbe2133b6	-0.15742382
62	0xbe9d5209	-0.3072665
63	0x3e82aa5c	0.255206
64	0x3e395a0d	0.18100758
65	0x3f1a86e2	0.60362065
66	0x3f485b8d	0.78264695
67	0x3e6c0863	0.23050074
68	0x3ebc36fb	0.36760697
69	0x3f420760	0.75792503
70	0x3f95515c	1.1665454
71	0x3f03876e	0.51378524
72	0x3ec7d8b4	0.3903252
73	0x3f4ebb18	0.8075423
74	0x3f986057	1.19044
75	0x3f13da22	0.5775472
76	0x3e938f12	0.2882009
77	0x3eeae59e	0.4587831
78	0x3f29dbbc	0.66350913
79	0x3e309bd5	0.17246945
80	0x3e4e19a9	0.20126976
81	0xbdb30c65	-0.087425984
82	0xbe96dba5	-0.2946445
83	0xbd698ad5	-0.057017166
84	0x3e8b93dd	0.27261248
85	0xbe07f554	-0.13277179
86	0xbece4950	-0.40290308
87	0x3d0c7a76	0.034296475
88	0x3e85d443	0.26138505
89	0xbde45fb4	-0.111510664
90	0xbee38fc9	-0.44445637
91	0x3de3289a	0.110917285
92	0x3e3f6d9b	0.18694155
93	0xbdd55de7	-0.10418301
94	0xbea48960	-0.3213606
95	0x3dc326ba	0.09528871

conv1.bias f4 [6]
0	0x3e86093b	0.26178917
1	0x3f038e6f	0.5138921
2	0x3ee2a7b7	0.4426858
3	0x3f06adea	0.5260912
4	0x3e4604a5	0.19337709
5	0x3f0f325d	0.55936223

conv2.weight f4 [6, 6, 3, 3]
0	0xbd191bfd	-0.037380207
1	0xbd9e6c50	-0.07735503
2	0x3f822391	1.0167104
3	0x3d30060a	0.04297451
4	0x3e93b6a0	0.2885027
5	0x3effa94c	0.4993385
6	0xbe1fd598	-0.15608823
7	0xbd4d0e30	-0.05006236
8	0x3e32ccc9	0.17460932
9	0x3d36469e	0.04450094
10	0xbe96d61d	-0.2946023
11	0x3f33664e	0.7007798
12	0x3ddf405b	0.10900947
13	0x3dc414f0	0.09574306
14	0x3f11d070	0.56958675
15	0xbddffe73	-0.10937204
16	0xbe78d79f	-0.24301003
17	0x3e9ad1e0	0.30238247
18	0x3e376aab	0.17911784
19	0xbd483823	-0.04888166
20	0xbed92cee	-0.4241709
21	0xbc513464	-0.012768839
22	0xbd7f5c38	-0.062343806
23	0xbc574b95	-0.013140579
24	0xbd63b3c0	-0.055591345
25	0xbc77326a	-0.015087703
26	0x3d83eab7	0.06441253
27	0xba84ff5a	-0.0010146901
28	0x3d5707c7	0.05249765
29	0xbe3f571f	-0.18685578
30	0x3d5627f8	0.05228421
31	0x3d908be2	0.070579305
32	0xbdc13523	-0.09433963
33	0x3d27238d	0.04080539
34	0x3e078249	0.13233294
35	0xbb4937ca	-0.003070342
36	0xbd9e6588	-0.07734209
37	0x3cbcb0c5	0.023033509
38	0x3f8deaa0	1.1087227
39	0x3def68aa	0.11689885
40	0x3eaea96c	0.34113634
41	0x3ee6302a	0.4495862
42	0xbe241266	-0.16022643
43	0x3c2a82b5	0.01040714
44	0x3e52d467	0.20588838
45	0x3d991ac6	0.0747581
46	0x3d0292a9	0.031878147
47	0xbe3f913f	-0.1870775
48	0x3db2b4e7	0.08725911
49	0x3d2457af	0.040122684
50	0xbcc319fd	-0.023816103
51	0x3d4a8956	0.04944738
52	0x3dc31108	0.09524733
53	0x3d60cdfc	0.054883942
54	0x3f2fd208	0.6867986
55	0x3ee1d5f2	0.4410854
56	0x3e68bbbc	0.22727865
57	0x3e149efe	0.14513776
58	0x3edfa7fb	0.43682846
59	0xbeb98fc7	-0.36242506
60	0x3dfb82ec	0.12280831
61	0x3ef249b8	0.47321868
62	0x3c0e4d24	0.008685384
63	0x3eff1ca2	0.49826533
64	0x3ed14978	0.40876365
65	0x3d7eda67	0.062220003
66	0x3cf120d1	0.029434593
67	0x3ecd4054	0.4008814
68	0xbe935c6a	-0.28781444
69	0xbc9f0ba8	-0.019414738
70	0x3edffe9e	0.43748945
71	0x3db45108	0.08804518
72	0xbdc955da	-0.09830828
73	0xbe0cdf0c	-0.1375696
74	0xbe977e61	-0.29588607
75	0xbc3f08f3	-0.0116598485
76	0xbe5410bc	-0.20709509
77	0xbd044c20	-0.03229916
78	0xbdd1faa3	-0.10252883
79	0xbc8bbe69	-0.017058568
80	0x3d70a65e	0.05875241
81	0xbe1cfd83	-0.15331082
82	0xbe38a934	-0.18033296
83	0xbdeada34	-0.114674
84	0x3c9a3cb3	0.018827772
85	0xbe42eb69	-0.19035114
86	0x3d500355	0.050784428
87	0xbcfbb180	-0.030724287
88	0xbdb44ddb	-0.08803912
89	0x3d0e9c35	0.03481694
90	0x3f40957b	0.7522809
91	0x3ec2de2e	0.38060135
92	0x3e56ae02	0.20964816
93	0x3e420fe2	0.18951371
94	0x3edff989	0.43745068
95	0xbeca314f	-0.39490744
96	0x3e0aa027	0.13537656
97	0x3eee3a82	0.46529013
98	0xbd378093	-0.044800352
99	0xbdd3d3c1	-0.10343123
100	0xbde2ada3	-0.11068275
101	0xbe0c6790	-0.13711381
102	0x3cc39927	0.02387674
103	0xbe03a057	-0.12854134
104	0x3d35e530	0.044408023
105	0xbd6f642d	-0.058445144
106	0xbd3a1800	-0.045433044
107	0x3d7a7ac7	0.061152246
108	0xbd1a700e	-0.03770452
109	0xbd94fe2b	-0.07275041
110	0xbd51e1e5	-0.05124082
111	0xbd6bb3f5	-0.057544667
112	0xbe054020	-0.13012743
113	0x3dba9c16	0.09111802
114	0xbd86734f	-0.06564962
115	0xbd935934	-0.071947485
116	0x3eb70eb4	0.35753405
117	0x3e3028f7	0.17203127
118	0x3a9d117b	0.0011983359
119	0x3d9e17cf	0.07719385
120	0x3e3106ec	0.17287797
121	0xbd4b610b	-0.049653094
122	0x3e61e0c4	0.22058398
123	0x3df345fd	0.118785836
124	0x3ccfeddb	0.025381973
125	0x3eb2f594	0.34952986
126	0x3e6289e4	0.22122914
127	0x3f16a39b	0.5884339
128	0x3f188b3a	0.5958744
129	0x3ebef655	0.3729731
130	0x3f17d33a	0.5930668
131	0x3efcbd99	0.49363402
132	0x3ef38772	0.47564274
133	0x3ef1ee08	0.47251916
134	0x3ea786a6	0.32719916
135	0x3e916c27	0.28402826
136	0x3f00539e	0.5012759
137	0x3ee604bd	0.4492549
138	0x3e9e45b8	0.30912566
139	0x3f072330	0.52788067
140	0x3ebd4bb8	0.3697183
141	0x3ebcf5f0	0.36906385
142	0x3ef7d4ba	0.48404485
143	0x3e73dd58	0.23814905
144	0xbdd5bcf0	-0.104364276
145	0xbe51890c	-0.20462435
146	0xbd8577a7	-0.065169625
147	0xbe0f72ee	-0.14008686
148	0xbe598425	-0.21241815
149	0x3e11d37f	0.14240836
150	0xbe157497	-0.14595257
151	0xbe1a6ceb	-0.15080611
152	0x3eb892a1	0.3604937
153	0x3e83fa51	0.25776914
154	0x3edb1dfb	0.4279631
155	0x3ecb9b87	0.39767095
156	0x3e92ee0a	0.28697234
157	0x3eddbd9f	0.43308732
158	0x3ebb6801	0.36602786
159	0x3ebac1b4	0.3647591
160	0x3eaba627	0.33525202
161	0x3e36e502	0.17860797
162	0xbea00d49	-0.31260136
163	0x3e149a2d	0.14511938
164	0xbe273e2e	-0.16332313
165	0xbd79689a	-0.06089077
166	0x3eba95cc	0.3644241
167	0xbdce3cba	-0.100701764
168	0xbd940cc7	-0.072289996
169	0x3f653f77	0.89549965
170	0x3f4f4904	0.8097079
171	0xbe840436	-0.25784463
172	0xbb75892a	-0.003746579
173	0xbd9442be	-0.072392926
174	0xbdedb1e0	-0.116061926
175	0x3e38985b	0.18026869
176	0x3d1b2f29	0.037886772
177	0xbd7da13c	-0.061921343
178	0x3ed86c0f	0.42269942
179	0x3f37ea57	0.7184195
180	0x3e19558c	0.1497404
181	0xbda8f3a5	-0.082495965
182	0x3e39971c	0.1812405
183	0x3d49a65a	0.04923091
184	0xbe0734f7	-0.13203798
185	0x3db28a04	0.08717731
186	0xbc8d7d20	-0.017271578
187	0xbe15f15d	-0.14642854
188	0xbc4c6bd4	-0.01247688
189	0x3dc45c3e	0.09587906
190	0xbdaaf4c5	-0.08347467
191	0x3e049b86	0.12949952
192	0x3debd9c4	0.11516145
193	0xbdaf995c	-0.08574173
194	0x3d8e0703	0.06934931
195	0x3d652b0a	0.05594925
196	0xbe1b779d	-0.15182348
197	0xbdc401b1	-0.09570635
198	0xbe5af0a6	-0.21380863
199	0x3e1ca252	0.15296295
200	0xbe43d3a3	-0.19123702
201	0xbe076ba8	-0.13224661
202	0x3ed58eb1	0.41710427
203	0xbdeee9f9	-0.116657205
204	0xbd009e6b	-0.03140108
205	0x3f5dd29e	0.866495
206	0x3f35e560	0.71053123
207	0x3daeb623	0.085308336
208	0xbda98f68	-0.08279306
209	0x3e0a1f28	0.13488448
210	0x3e0d9ae2	0.13828614
211	0xbdb20802	-0.086929336
212	0x3da9e826	0.08296232
213	0x3d10fa4f	0.035394963
214	0xbe2d22ad	-0.16907759
215	0xbd1ccebe	-0.038283102
216	0x3f2679b6	0.65029466
217	0x3ea8be58	0.3295772
218	0x3f0dd316	0.55400217
219	0x3d85d124	0.06534031
220	0x3eb14347	0.3462164
221	0x3c903a97	0.017606063
222	0xbe6988a9	-0.22806038
223	0xbd391e4c	-0.04519491
224	0x3dd4d152	0.10391487
225	0x3f00c37f	0.50298303
226	0x3e542dce	0.20720598
227	0x3ed844c4	0.42239964
228	0x3d8a1f29	0.067442246
229	0x3dc20ba5	0.09474877
230	0x3e65c4e9	0.22438397
231	0xbe59f096	-0.21283183
232	0xbe51f384	-0.2050305
233	0x3e802644	0.25029194
234	0x3ba2b81a	0.0049657943
235	0xbd5213c6	-0.05128839
236	0xbe2a858f	-0.16652511
237	0x3dccd645	0.10001806
238	0xbe2034a8	-0.15645087
239	0x3e09ad56	0.13445029
240	0x3d838199	0.06421203
241	0x3d5b01aa	0.053468384
242	0x3e18b900	0.14914322
243	0xbdc3796d	-0.095446445
244	0xbc9a4d83	-0.018835789
245	0xbd0489ab	-0.032357853
246	0x3ddea464	0.10871199
247	0x3c01a7d2	0.007913547
248	0x3d97da51	0.074146874
249	0x3dd97260	0.106175184
250	0x3df971f6	0.121799394
251	0x3db80a2a	0.08986314
252	0x3f26d4eb	0.6516864
253	0x3ec19750	0.37810755
254	0x3ef9b163	0.48768148
255	0x3dc32453	0.09528413

conv2.bias f4 [6]
0	0x3e0b035d	0.13575502
1	0x3d29d525	0.041463036
2	0x3eabc253	0.33546695
3	0x3ddd8a04	0.1081734
4	0x3e35388f	0.17697357
5	0x3e1120f8	0.14172733

fc1.weight f4 [10, 54]
0	0xbe8e23dc	-0.27761734
1	0x3d72d0b2	0.05928106
2	0xbcfdc702	-0.030978683
3	0x3d9c1e34	0.07622948
4	0xbc896db7	-0.016775949
5	0x3ea600eb	0.32422575
6	0x3d1063fd	0.035251606
7	0x3d319db1	0.043363277
8	0x3e382d08	0.17985928
9	0xbe861b84	-0.26192868
10	0xbbf28bb7	-0.007401909
11	0xbe24ca93	-0.16092901
12	0xbd5b2754	-0.053504303
13	0x3d45f7bf	0.048331972
14	0x3ddd8176	0.10815708
15	0x3e7d72c4	0.24750811
16	0x3dd57a8e	0.10423766
17	0x3dac4f3b	0.084135495
18	0x3e40a54b	0.18813054
19	0x3e093552	0.13399246
20	0x3de85fe8	0.11346418
21	0x3e85ac31	0.26107934
22	0xbd520e04	-0.051282898
23	0x3d31b718	0.043387502
24	0xbe486d69	-0.19572987
25	0xbeac5891	-0.3366132
26	0x3df1706f	0.11789023
27	0xbeb390af	-0.35071322
28	0x3d4f501d	0.05061351
29	0xbe057612	-0.13033321
30	0x3e1dd3a3	0.15412764
31	0x3db3c1ef	0.08777224
32	0x3e8db5d2	0.2767778
33	0xbc0db43e	-0.00864893
34	0xbdd2ea2f	-0.10298573
35	0x3e250185	0.16113861
36	0xbe80601c	-0.25073326
37	0x3dadbd5c	0.08483383
38	0xbcfa7379	-0.03057264
39	0xbb100c7b	-0.0021980095
40	0x3bd91e43	0.006625922
41	0x3de57fe9	0.112060376
42	0x3dc7bccf	0.09752809
43	0x3daca355	0.084295906
44	0x3e42a584	0.19008452
45	0xbeb28ec8	-0.34874558
46	0x3d8fbc59	0.07018346
47	0xbdded327	-0.10880118
48	0x3e2d299d	0.16910405
49	0x3d076ee7	0.03306475
50	0x3eabded7	0.3356845
51	0x3d59f42c	0.053211376
52	0xbcfd3e1c	-0.030913405
53	0x3dbf1d29	0.09331734
54	0x3e0940ac	0.13403577
55	0x3e356c5e	0.1771712
56	0xbcf621ab	-0.030045351
57	0x3ab8c618	0.0014097122
58	0x3d95aeba	0.07308717
59	0x3c70219a	0.014656449
60	0xbcb277bd	-0.021785611
61	0x3c8df072	0.017326567
62	0xbe8b52fb	-0.27211747
63	0xbcb6eae0	-0.022328794
64	0x3e1dfcc0	0.15428448
65	0x3dbe8e26	0.093044564
66	0xbe5a5299	-0.21320571
67	0x3e347c1c	0.17625469
68	0xbe25a58e	-0.16176435
69	0xbe57ba61	-0.21067192
70	0xbd4d477a	-0.050116993
71	0xbe0f9fdd	-0.14025827
72	0xbc0916f4	-0.008367289
73	0xbd80e0ed	-0.06292901
74	0x3c752c37	0.014964155
75	0x3dc2cfe6	0.0951231
76	0x3d1f302e	0.038864307
77	0x3cd0233c	0.025407426
78	0x3d941a7d	0.07231615
79	0x3ebc78de	0.36810964
80	0xbc2f6174	-0.010704387
81	0xbd6da539	-0.058018897
82	0x3e2b0776	0.16702065
83	0xbe7affef	-0.24511693
84	0xbcd2dfe3	-0.025741523
85	0x3d19e416	0.037571035
86	0xbd0e0c3a	-0.03467963
87	0xbd8bae1e	-0.068203196
88	0x3dd7b49b	0.10532495
89	0xbec96980	-0.39338303
90	0x3dfa856f	0.12232482
91	0x3db94f1d	0.09048293
92	0x3e081e01	0.13292696
93	0xbdc412f2	-0.09573926
94	0x3e240314	0.16016799
95	0xbe1fd664	-0.15609127
96	0xbd257fb3	-0.040404987
97	0xbcfc7ee6	-0.030822229
98	0xbe5eb18a	-0.21747413
99	0xbd14f9f7	-0.036371198
100	0x3e108f4d	0.14117165
101	0xbe78f233	-0.24311142
102	0xbc3fad03	-0.011698964
103	0x3ccf0977	0.025273068
104	0xbd0821be	-0.033235304
105	0xbdf49c50	-0.11943877
106	0x3bbf1caa	0.0058322744
107	0xbea5429b	-0.32277378
108	0x3e18febb	0.14940922
109	0xbe2c7639	-0.16841973
110	0x3d71d73e	0.05904316
111	0xbdc63164	-0.09677389
112	0x3ccf509d	0.025306994
113	0x3eacc232	0.3374191
114	0xbe35a245	-0.17737682
115	0x3e08d4ae	0.13362381
116	0x3e053832	0.13009718
117	0xbe60e774	-0.21963292
118	0xbe885cf4	-0.26633418
119	0x3d8297f0	0.06376636
120	0x3b8dab0a	0.004323368
121	0x3d84dc65	0.064873494
122	0x3cefddd2	0.029280577
123	0x3cdf1ab5	0.027234415
124	0x3e91ba0e	0.2846226
125	0xbce09a33	-0.027417278
126	0x3e93d0c5	0.28870216
127	0x3f066b56	0.5250753
128	0x3e7ba442	0.24574378
129	0x3e6cde18	0.23131597
130	0xbe818230	-0.25294638
131	0x3e63d52f	0.22249292
132	0x3e739dc2	0.23790649
133	0xbecb7b67	-0.39742586
134	0x3e85cda8	0.26133466
135	0xbe253b8e	-0.16136
136	0xbdfc36f4	-0.12315169
137	0xbdbaa3bd	-0.09113262
138	0xbded5b83	-0.1158972
139	0x3e139525	0.14412363
140	0x3e408536	0.18800816
141	0xbd8dae9e	-0.06918071
142	0x3eab8cdd	0.33505908
143	0xbda07fa8	-0.078368485
144	0x3e0c25e8	0.13686335
145	0xbe11a65a	-0.14223614
146	0x3e0c6c01	0.13713075
147	0x3af0e7a1	0.0018379578
148	0x3d340af0	0.043955743
149	0x3e39fd37	0.18163
150	0x3d6480ef	0.055787023
151	0x3d8b3a7f	0.067982666
152	0x3d8bc23c	0.06824157
153	0xbd03cbad	-0.032176662
154	0xbe3854d5	-0.18001111
155	0xbcbf7448	-0.023370877
156	0xbc354be5	-0.011065458
157	0x3de5875d	0.11207459
158	0x3eaf06f2	0.34184986
159	0xbd85274e	-0.065016374
160	0x3e51ee1d	0.2050099
161	0xbda52e68	-0.08065492
162	0x3bb75889	0.005595271
163	0x3e6889f6	0.22708878
164	0xbe885c1d	-0.26632777
165	0x3e220721	0.15823032
166	0x3d948c94	0.07253376
167	0xbe947533	-0.28995666
168	0x3cc938aa	0.024563152
169	0xbe111c76	-0.14171013
170	0x3dfb2579	0.12263007
171	0xbe824ff5	-0.25451627
172	0x3ec7412a	0.38916904
173	0x3c627e05	0.013823991
174	0xbe8db1ee	-0.27674812
175	0xbdb820e6	-0.0899065
176	0x3e4b01c8	0.19824898
177	0xbc15fcb7	-0.00915449
178	0xbe951b83	-0.29122552
179	0x3d932dd0	0.071864724
180	0x3c9f6d2c	0.019461237
181	0xbedc1b98	-0.42989802
182	0xbdb547a3	-0.08851554
183	0x3d8cd397	0.06876295
184	0x3f09ba46	0.53799856
185	0xbc9003b5	-0.017579893
186	0xbe4588ea	-0.1929051
187	0x3f122817	0.5709242
188	0xbd59ac9b	-0.053143125
189	0xbd0c573c	-0.03426288
190	0x3e5d948e	0.216387
191	0xbe7699d4	-0.24082118
192	0x3e454db3	0.19267921
193	0xbd6b9b83	-0.057521354
194	0x3d7501b2	0.05981607
195	0xbe62d789	-0.22152533
196	0xbe02d38c	-0.12776011
197	0x3e7ff4ad	0.2499568
198	0xbd4a6175	-0.04940935
199	0x3ec19eb0	0.3781638
200	0xbe1c6f30	-0.1527679
201	0xbdc49d97	-0.096003704
202	0x3c1d40a5	0.009597932
203	0xba8bec22	-0.0010675231
204	0xbd855c0f	-0.065116994
205	0xbdf35c8d	-0.11882887
206	0x3e08aeca	0.13347927
207	0xbd8d892a	-0.069109276
208	0x3e6e9116	0.23297533
209	0xbd9778b3	-0.073960684
210	0x3de0d477	0.109780245
211	0x3d194ed2	0.037428685
212	0xbe31fe78	-0.17382228
213	0xbdbffe6e	-0.093747005
214	0xbe135c8e	-0.14390776
215	0x3d1c4e1c	0.03816043
216	0xbe8a0403	-0.26956186
217	0xbe5e6f59	-0.21722163
218	0x3ee8f799	0.45501402
219	0x3e82e966	0.25568694
220	0xbe7bd6a7	-0.24593602
221	0xbcdb4ea7	-0.026770903
222	0x3e1301ee	0.14356205
223	0xbe0e689e	-0.13907096
224	0x3e398fc5	0.1812125
225	0xbe2bef9f	-0.16790627
226	0x3e485418	0.19563329
227	0xbe849a97	-0.25899193
228	0x3e76ca76	0.2410067
229	0xbdd6bf5b	-0.10485717
230	0x3e343196	0.1759704
231	0xbc813011	-0.01576999
232	0x3e488e7c	0.19585603
233	0xbde1737e	-0.110083565
234	0x3da0a28c	0.07843503
235	0xbe9f8952	-0.31159455
236	0x3d1c9091	0.038223807
237	0xbc08b683	-0.008344295
238	0x3dcf8b48	0.10133988
239	0xbd2a8ed0	-0.041640103
240	0x3dd54a7d	0.10414598
241	0xbd8ea9be	-0.069659695
242	0x3e4c7a47	0.1996852
243	0x3d8c2469	0.06842882
244	0x3d6ba411	0.057529513
245	0x3e508295	0.20362313
246	0x3e2b46ea	0.1672627
247	0xbdc2528d	-0.094884016
248	0x3dcba216	0.09943025
249	0xbd9d3a71	-0.076771624
250	0x3efc8cc5	0.4932615
251	0xbe054d81	-0.13017847
252	0xbe80b420	-0.25137424
253	0xbc75a749	-0.014993497
254	0xbda27ac3	-0.07933571
255	0x3ef23ffd	0.47314444

fc1.bias f4 [10]
0	0x3c531948	0.0128844455
1	0xbc880eab	-0.016608557
2	0x3e0ffbe9	0.1406094
3	0xbc3a80f9	-0.011383289
4	0x3c20279f	0.009775071
5	0xbd194176	-0.037415944
6	0xbd239dd7	-0.03994545
7	0x3cb3166c	0.021861278
8	0xbd4cd6df	-0.050009605
9	0x3dc4b593	0.09604945

fc2.weight f4 [10, 10]
0	0xbf30653e	-0.68904483
1	0x3e118b92	0.14213398
2	0xbe3e3a5e	-0.18576953
3	0xbe0298fd	-0.12753673
4	0xbc2c75f8	-0.010526173
5	0x3c08ea3b	0.008356626
6	0xbec35497	-0.38150474
7	0x3e8b7de3	0.2724448
8	0x3e1a943c	0.1509561
9	0x3ee594b2	0.44840008
10	0xbeb21cfb	-0.34787735
11	0x3ec8e899	0.39239958
12	0xbf2c2c5e	-0.672552
13	0x3ef39781	0.47576526
14	0xbf136659	-0.57578045
15	0xbd3071c1	-0.043077234
16	0x3eb31bc3	0.34982118
17	0xbe17ea3e	-0.1483545
18	0xbe9d0f58	-0.3067577
19	0x3e89a811	0.26886037
20	0xbe52aa31	-0.20572735
21	0xbe7d06af	-0.24709581
22	0xbd11a0cd	-0.035553742
23	0x3dcab155	0.09897105
24	0xbe83c3a9	-0.25735214
25	0x3d5781f2	0.05261416
26	0xbe9516ce	-0.2911896
27	0x3f0510a8	0.5197854
28	0xbe3f334c	-0.18671912
29	0x3d6dc390	0.05804783
30	0xbe5d1859	-0.21591319
31	0x3e57c212	0.21070126
32	0xbcf4a532	-0.029863928
33	0xbe14bcfd	-0.14525218
34	0xbd5e682b	-0.05429856
35	0xbce77ff9	-0.028259264
36	0x3e96e49c	0.2947129
37	0x3e662c65	0.22477873
38	0x3d666476	0.05624815
39	0x3e1ef88e	0.15524504
40	0xbd8a75c8	-0.06760746
41	0x3e85ee27	0.26158258
42	0xbebc8254	-0.36818182
43	0x3eaaf88c	0.3339275
44	0x3e167c2c	0.14695805
45	0x3ead0067	0.3378937
46	0x3e5ce1b7	0.21570478
47	0x3e0379ef	0.12839483
48	0xbe5023a0	-0.2032609
49	0xbf1a3fc9	-0.6025358
50	0x3e648f3e	0.22320268
51	0xbc89b486	-0.016809713
52	0x3e89ac54	0.26889288
53	0x3e8924f1	0.26785997
54	0x3e2665a1	0.16249706
55	0xbf3a9bd0	-0.72894
56	0xbe4f29a1	-0.20230724
57	0x3d00b6a2	0.031424172
58	0x3da546fe	0.08070181
59	0xbd041623	-0.032247674
60	0xbe862891	-0.26202825
61	0xbe9f71e3	-0.31141576
62	0x3da0ed38	0.07857746
63	0x3e3a587b	0.18197815
64	0x3ea3f030	0.32019186
65	0x3e8971d3	0.26844653
66	0xbf30fdb8	-0.69137144
67	0x3d4ccc5e	0.049999587
68	0xbeb6c798	-0.35699153
69	0x3e1ddfca	0.154174
70	0x3e6be7e0	0.23037672
71	0xbe16d248	-0.14728653
72	0x3ee87789	0.45403698
73	0xbed4e421	-0.415803
74	0xbf568bcd	-0.8380707
75	0xbcd06b1f	-0.025441704
76	0xbe34b476	-0.17646965
77	0xbf1ead93	-0.61983603
78	0xbe1506e8	-0.14553416
79	0xbe9c8d59	-0.3057659
80	0xbce319ad	-0.027722204
81	0xbe9bcc94	-0.30429518
82	0x3e399807	0.181244
83	0xbf211e80	-0.62937164
84	0x3ea3f29b	0.3202103
85	0x3dbfda02	0.093677536
86	0x3e2db0b1	0.16961934
87	0x3df69a7d	0.12041185
88	0xbdbc546b	-0.09195789
89	0xbe615c39	-0.22007836
90	0x3d7b5303	0.061358463
91	0x3c9a43a6	0.018831085
92	0x3e228b0e	0.15873358
93	0xbde5b83f	-0.11216783
94	0xbeab3520	-0.3343897
95	0xbe0b8cac	-0.13627881
96	0xbceb1b4d	-0.028699541
97	0xbed9c8d8	-0.42536044
98	0x3f1f3e81	0.6220475
99	0xbe51a29c	-0.20472187

fc2.bias f4 [10]
0	0x3d6615ba	0.056173064
1	0xbdbd16fc	-0.092328995
2	0xbd8779c6	-0.06615023
3	0xba29a9ca	-0.0006472139
4	0xbe964887	-0.2935221
5	0x3ec2b759	0.38030508
6	0x3df4eb16	0.119589016
7	0x3e8b132d	0.27163067
8	0xbdcfccdc	-0.10146496
9	0xbe818728	-0.2529843
