models/cifar10_CNN1/model.pth (torch, 7695 bytes, 8 tensors)

conv1.weight f4 [6, 3, 4, 4]
-0.2560634 -0.18799788 -0.19445859 -0.15980908 -0.23313296 -0.3365522 -0.28614333 -0.24283361
-0.31297716 -0.19215655 -0.20223011 -0.17534637 -0.2348874 -0.11798579 -0.09187967 -0.06577127
-0.08937892 0.021746682 -0.04311973 0.011851551 -0.04335224 -0.1087431 -0.0848364 -0.0024264555
-0.13930744 -0.019116174 -0.11258223 -0.065801546 -0.146317 -0.04897043 -0.12927441 -0.09672935
0.45064157 0.4006531 0.44530705 0.36356163 0.37753588 0.3512036 0.38285518 0.38751188
0.32832298 0.44165418 0.43853977 0.33457443 0.41539776 0.37255186 0.37952203 0.43599427
-0.09294536 -0.10417616 -0.07976957 -0.120869994 -0.13316153 -0.14751591 -0.10614541 -0.12183769
-0.06924054 -0.06264222 -0.10297834 -0.036233287 0.013705514 -0.019333798 0.010584833 0.037888482
-0.046877272 0.006464989 -0.000114615046 -0.0844903 -0.06301017 -0.09267548 -0.11170907 -0.06767979
-0.13093613 -0.109906815 -0.091490276 -0.057285953 -0.107848704 -0.07140161 -0.110859804 -0.11205122
0.30589455 0.36460063 0.30887282 0.32478818 0.30123 0.25652206 0.27523342 0.3339496
0.22777894 0.32485735 0.2575898 0.23809595 0.304384 0.3213492 0.26451033 0.2906278
-0.057694755 -0.03261042 -0.028027087 -0.04739285 -0.054717008 -0.036746915 -0.01908688 -0.031262804
-0.0047106994 0.016729703 0.02057417 0.017662605 0.06305567 0.090670034 0.09452231 0.096130334
-0.037310123 -0.02328704 -0.019751798 -0.031412527 -0.099731475 -0.08523718 -0.06712479 -0.07767978
-0.116237886 -0.09611253 -0.09849398 -0.09540467 -0.13376553 -0.10822797 -0.11221918 -0.10568592
0.33251977 0.33067274 0.3217363 0.3088282 0.27285948 0.27325684 0.2814451 0.2729251
0.264104 0.27137053 0.2637891 0.26461056 0.23987532 0.2536265 0.2387455 0.24475658
-3.8549342e-07 -5.5874455e-07 -6.261948e-07 -5.9427623e-07 -4.0722463e-07 -4.873684e-07 -4.818381e-07 -4.959713e-07
-4.502771e-07 -4.622076e-07 -3.636752e-07 -2.4702643e-07 1.02541726e-07 4.8373465e-07 7.871003e-07 8.1466806e-07
-2.8546125e-07 -4.2359176e-07 -4.997403e-07 -4.826535e-07 -3.0843017e-07 -3.820633e-07 -4.0737123e-07 -4.3436054e-07
-3.5448926e-07 -3.6522263e-07 -2.551603e-07 -1.3359704e-07 4.3812562e-07 8.107169e-07 7.3243046e-07 9.680267e-07
-2.618125e-07 -3.4751005e-07 -3.8988108e-07 -4.0043508e-07 -1.8361371e-07 -2.7739654e-07 -1.9378936e-07 -4.798617e-08
8.798415e-08 1.81199e-07 5.4884504e-07 6.1848334e-07 6.984712e-07 -1.4377147e-07 -3.967775e-06 -1.8156986e-06
0.27390894 0.23571748 0.17762949 0.15086149 0.37284836 0.3339509 0.2813191 0.22471313
0.42183003 0.37301534 0.31882423 0.2556746 0.42992648 0.37672037 0.31732294 0.24900945
0.37686422 0.3677517 0.34099063 0.3346885 0.41575408 0.40024596 0.3805461 0.3473919
0.4096606 0.3834766 0.36482194 0.32491612 0.37616792 0.34838462 0.31873628 0.27732193
-0.051740132 -0.03900145 -0.049766365 -0.043099582 -0.029498458 -0.027624788 -0.030026237 -0.043928444
-0.03463149 -0.042851124 -0.047328606 -0.06866273 -0.05352082 -0.06452848 -0.07917938 -0.11004328
-0.18455078 -0.15966552 -0.14570332 -0.13184331 -0.22788222 -0.20632009 -0.18196572 -0.15850908
-0.18918647 -0.17432208 -0.15377052 -0.14170451 -0.10880865 -0.08703069 -0.06397219 -0.039815765
00000000: be1a 83be 8482 40be 2720 47be fea4 23be
00000010: 68ba 6ebe 9250 acbe 6181 92be 60a9 78be
00000020: 8b3e a0be b0c4 44be 6915 4fbe 008e 33be
00000030: 5386 70be 89a2 f1bd 692b bcbd 16b3 86bd
00000040: 4c0c b7bd 1926 b23c 509e 30bd 022d 423c
00000050: 1e92 31bd b4b4 debd b5be adbd 2b05 1fbb
00000060: 9ca6 0ebe 8699 9cbc 8391 e6bd f6c2 86bd
00000070: 20d4 15be 3895 48bd 8360 04be 0a1a c6bd
00000080: 7eba e63e 6722 cd3e 49ff e33e c024 ba3e
00000090: 624c c13e f5d0 b33e 9805 c43e f567 c63e
000000a0: f319 a83e 7f20 e23e 4988 e03e 574d ab3e
000000b0: 04af d43e 1ebf be3e b650 c23e a43a df3e
000000c0: 235a bebd 505a d5bd 3a5e a3bd b08a f7bd
000000d0: 7f5b 08be 690e 17be c462 d9bd 0a86 f9bd
000000e0: fccd 8dbd 904a 80bd 4fe6 d2bd 5b69 14bd
000000f0: 188d 603c ea61 9ebc 026c 2d3c f430 1b3d
00000100: 6202 40bd 42d8 d33b 7c5d f0b8 4009 adbd
00000110: 7a0b 81bd a4cc bdbd bac7 e4bd b49b 8abd
00000120: 1f14 06be d316 e1bd 415f bbbd ada4 6abd
00000130: c8df dcbd 023b 92bd 770a e3bd 1c7b e5bd
00000140: 369e 9c3e efac ba3e 9424 9e3e a34a a63e
00000150: d23a 9a3e dc56 833e 65eb 8c3e 71fb aa3e
00000160: e23e 693e b453 a63e cfe2 833e 6dcf 733e
00000170: 38d8 9b3e e287 a43e e66d 873e 2bcd 943e
00000180: 5651 6cbd 8192 05bd 1099 e5bc 011f 42bd
00000190: f11e 60bd ef83 16bd 175c 9cbc 6d0d 00bd
000001a0: 365c 9abb bb0c 893c 298b a83c 2bb1 903c
000001b0: 5523 813d 36b1 b93d ea94 c13d fbdf c43d
000001c0: 80d2 18bd 76c4 bebc 86ce a1bc 6caa 00bd
000001d0: 0440 ccbd d590 aebd b978 89bd 9416 9fbd
000001e0: 210e eebd a5d6 c4bd 36b7 c9bd 8663 c3bd
000001f0: d5f9 08be a0a6 ddbd 2bd3 e5bd dc71 d8bd
00000200: 0840 aa3e f04d a93e 9fba a43e bb1e 9e3e
00000210: 3db4 8b3e 52e8 8b3e 9219 903e d7bc 8b3e
00000220: a438 873e 14f1 8a3e 5d0f 873e 097b 873e
00000230: e0a1 753e 55db 813e b379 743e 78a1 7a3e
00000240: d0f5 ceb4 a2fc 15b5 c717 28b5 5a86 1fb5
00000250: 87a0 dab4 b4d3 02b5 a957 01b5 e322 05b5
00000260: 9dbd f1b4 5425 f8b4 243f c3b4 0e9f 84b4
00000270: e934 dc33 fed9 0135 1f49 5335 90af 5a35
00000280: 7f41 99b4 026a e3b4 e425 06b5 b28f 01b5
00000290: 5296 a5b4 611e cdb4 adb4 dab4 0f32 e9b4
000002a0: a250 beb4 d113 c4b4 f7fc 88b4 e072 0fb4
000002b0: 8737 eb34 0ba0 5935 3d9c 4435 25ed 8135
000002c0: 3c8f 8cb4 6b91 bab4 d950 d1b4 61fb d6b4
000002d0: 5a27 45b4 17ed 94b4 6a14 50b4 5a19 4eb3
000002e0: ccf1 bc33 9a8f 4234 5854 1335 da05 2635
000002f0: 937e 3b35 9a5f 1ab4 ed22 85b6 eeb2 f3b5
00000300: cb3d 8c3e ec5f 713e 81e4 353e 6f7b 1a3e
00000310: fbe5 be3e 9dfb aa3e 0f09 903e 331b 663e
00000320: 1bfa d73e defb be3e ee3c a33e c8e7 823e
00000330: 531f dc3e 7ee1 c03e 2778 a23e 55fc 7e3e
00000340: 59f4 c03e f349 bc3e 5396 ae3e 4b5c ab3e
00000350: b8dd d43e 0aed cc3e f0d6 c23e 5add b13e
00000360: 09bf d13e 0b57 c43e f1c9 ba3e 685b a63e
00000370: 1599 c03e 785f b23e 6731 a33e 24fd 8d3e
00000380: 76ed 53bd fcbf 1fbd d1d7 4bbd 3089 30bd
00000390: c0a6 f1bc 614d e2bc 95f9 f5bc 50ee 33bd
000003a0: c0d9 0dbd a984 2fbd a4db 41bd 0c9f 8cbd
000003b0: a638 5bbd 8227 84bd cc28 a2bd 5f5e e1bd
000003c0: e1fa 3cbe 5c7f 23be 4033 15be ef01 07be
000003d0: f559 69be 9345 53be 3955 3abe 3450 22be
000003e0: 19ba 41be 7d81 32be 0576 1dbe fd1a 11be
000003f0: 12d7 debd 253d b2bd da03 83bd db15 23bd

conv1.bias f4 [6]
-0.2776336 -0.66566116 -0.7501711 -9.695298e-07 -0.13588217 -0.38788164
00000000: fe25 8ebe c568 2abf 370b 40bf ca20 82b5
00000010: b224 0bbe 6c98 c6be

conv2.weight f4 [6, 6, 3, 3]
-0.5002552 -0.26096073 -0.25684386 -0.6288941 -0.3640703 -0.20614813 -0.5850413 -0.34032378
-0.23355767 -0.13712858 -0.11163875 -0.11304448 -0.2652374 -0.12221748 -0.075413235 -0.20755789
-0.11746873 -0.10310171 -0.046048254 -0.03449355 -0.1251827 -0.15504077 -0.06510216 -0.046136238
-0.08008076 -0.075333275 -0.06532058 -7.194261e-07 1.3378286e-07 8.0178694e-08 -6.6622574e-10 8.8009976e-08
-7.214382e-09 3.876857e-08 -1.6993768e-08 -2.3149173e-08 0.3236791 0.2784178 0.17956129 0.44525978
0.38453484 0.28855628 0.52831554 0.3894808 0.33019313 -0.31275117 -0.16046385 -0.14905179
-0.4270832 -0.22029682 -0.11196336 -0.40099353 -0.21825747 -0.13601191 0.52205306 0.25763196
0.27257282 0.39281607 0.17444004 0.20549378 0.45916316 0.27407265 0.28903663 0.44091967
0.23240158 0.22026072 0.26180252 0.07394934 0.06907664 0.13720086 0.031367853 0.034965273
0.4467668 0.25483337 0.22750518 0.23285559 0.11233692 0.08197225 0.04932294 -0.01768389
0.0063194917 -2.6118564e-06 -6.1281844e-07 4.4866084e-08 3.8832837e-10 -3.273477e-08 -8.1262215e-09 -1.7263958e-06
-5.295222e-08 3.0311473e-09 0.06339153 0.056929067 0.050166607 0.019467846 0.05688857 0.031077338
-0.1874262 -0.07916569 -0.05833468 0.41597316 0.1830203 0.19542077 0.28733054 0.08450828
0.0964266 0.29138353 0.154832 0.13911474 0.48281536 0.22945805 0.26366943 0.4252492
0.23210056 0.2238949 0.49044275 0.3312695 0.35067305 0.24481872 0.071864 0.17869428
0.13712986 0.03861259 0.10538381 -0.00019197878 0.0021047143 0.10676062 0.19090128 0.08139737
0.18223457 0.09533456 0.065361515 0.1618152 -0.10606193 -0.011946458 0.11379348 -3.4757563e-06
-3.965052e-07 -2.8167758e-08 7.4086726e-10 -6.711796e-08 -7.482737e-09 -1.0560994e-06 -2.1271362e-08 6.4586123e-09
-0.07170299 -0.026659224 0.089219496 -0.08160809 0.050115075 0.15909044 -0.29860273 -0.03562712
0.12561958 0.3167437 0.12858538 0.16830233 0.2591245 0.100815676 0.12215437 0.25764543
0.153583 0.20752347 0.2749857 0.085688226 0.17455748 0.053970803 -0.10725113 -0.019993607
0.10679475 -0.021770526 0.007957732 0.3026885 0.15154658 0.25657937 0.056931507 -0.05488722
0.055951398 -0.01115264 -0.059372645 0.029856116 0.3158625 0.17789125 0.30706197 0.044838697
-0.0028614097 0.110665515 -0.05437539 -0.04669416 0.07959854 -1.8673315e-06 -3.797766e-07 2.887201e-09
-2.8118352e-09 -2.029001e-08 -6.9948802e-09 -1.1228618e-06 -1.9767777e-08 1.1839575e-09 -0.058513273 -0.027254112
0.107022904 -0.08996016 0.009775438 0.076194294 -0.15320194 0.058623437 0.126969 0.24486324
0.06766123 0.17003483 0.032205466 -0.09138398 -0.011996373 0.051099308 -0.0420368 -0.0012595975
0.11807767 0.024036804 0.015642311 0.08365793 0.052511476 0.12840852 0.18056099 0.10526567
0.17024839 0.32264644 0.13277249 0.036072783 0.29961482 0.17441934 0.15929319 0.30776474
0.15740374 0.14902073 0.3435377 0.14543585 0.026116395 0.36207774 0.24722102 0.24072668
0.34736484 0.20172444 0.20186123 -1.0283601e-08 -2.3359328e-07 2.3967694e-08 4.781428e-10 -1.029568e-08
-2.5038982e-09 -4.521713e-07 4.6560442e-07 9.007047e-07 -0.009550267 -0.1563288 -0.28765616 0.19469209
00000000: ba10 00bf a59c 85be 0a81 83be 34ff 20bf
00000010: 6c67 babe 7f18 53be 44c5 15bf eb3e aebe
00000020: be29 6fbe 6f6b 0cbe dba2 e4bd dd83 e7bd
00000030: 32cd 87be 284d fabd 4172 9abd 0e8a 54be
00000040: 7293 f0bd fd26 d3bd 189d 3cbd 1c49 0dbd
00000050: e52f 00be 02c3 1ebe 4854 85bd 5af9 3cbd
00000060: 6201 a4bd 5548 9abd ccc6 85bd 961e 41b5
00000070: f4a5 0f34 b42e ac33 7821 37b0 ffff bc33
00000080: 60e2 f7b1 7e82 2633 b1f9 91b2 92d9 c6b2
00000090: 44b9 a53e c78c 8e3e eade 373e 17f9 e33e
000000a0: c0e1 c43e a6bd 933e b03f 073f 076a c73e
000000b0: 130f a93e ec20 a0be a350 24be 08a1 18be
000000c0: a6aa dabe 7d95 61be 0c4d e5bd 064f cdbe
000000d0: e37e 5fbe b546 0bbe 45a5 053f 56e8 833e
000000e0: aa8e 8b3e 301f c93e 69a0 323e f66c 523e
000000f0: 6f17 eb3e 4053 8c3e 9cfc 933e 39c0 e13e
00000100: aefa 6d3e 078c 613e fb0a 863e c072 973d
00000110: 0e78 8d3d 627e 0c3e 947b 003d bf37 0f3d
00000120: 9ebe e43e 8579 823e 1ef7 683e b271 6e3e
00000130: e610 e63d 11e1 a73d da06 4a3d cedd 90bc
00000140: bd13 cf3b 5a47 2fb6 9080 24b5 c8b2 4033
00000150: 5c7c d52f 4398 0cb3 809b 0bb2 82b6 e7b5
00000160: 956d 63b3 824c 5031 6bd3 813d 742e 693d
00000170: 807b 4d3d 087b 9f3c fd03 693d e795 fe3c
00000180: a7ec 3fbe 9f21 a2bd 58f0 6ebd 6ffa d43e
00000190: ac69 3b3e 621c 483e fd1c 933e ad12 ad3d
000001a0: 4f7b c53d 3930 953e 488c 1e3e 1874 0e3e
000001b0: 9333 f73e 0df7 6a3e aeff 863e 43ba d93e
000001c0: c5ab 6d3e b444 653e 501b fb3e 289c a93e
000001d0: 6b8b b33e c2b1 7a3e 6f2d 933d a2fb 363e
000001e0: c56b 0c3e 3c28 1e3d 78d3 d73d e94d 49b9
000001f0: 3fef 093b 50a5 da3d a07b 433e aab3 a63d
00000200: b39b 3a3e c43e c33d 42dc 853d e2b2 253e
00000210: ff36 d9bd 14bb 43bc 8e0c e93d 0a41 69b6
00000220: 42df d4b4 8ef5 f1b2 e6a5 4b30 7d22 90b3
00000230: 6d8d 00b2 4dbf 8db5 38b8 b6b2 8eea dd31
00000240: 04d9 92bd 7264 dabc b6b8 b63d 2422 a7bd
00000250: 7745 4d3d 9be8 223e 75e2 98be beed 11bd
00000260: 6ba2 003e 3b2c a23e e3ab 033e 7257 2c3e
00000270: f7ab 843e 7378 ce3d 122c fa3d 1aea 833e
00000280: dd44 1d3e 0881 543e edca 8c3e 4f7d af3d
00000290: 32bf 323e 7d10 5d3d 7ba6 dbbd a2c9 a3bc
000002a0: 35b7 da3d 1a58 b2bc 2661 023c fdf9 9a3e
000002b0: 072f 1b3e 5f5e 833e 0331 693d 6cd1 60bd
000002c0: 4b2d 653d 90b9 36bc bb30 73bd d094 f43c
000002d0: bbb8 a13e 2029 363e 3a37 9d3e c8a8 373d
000002e0: 7d86 3bbb 9aa4 e23d bbb8 5ebd 6042 3fbd
000002f0: 8f04 a33d 06a1 fab5 19e4 cbb4 2d68 4631
00000300: 543a 41b1 344a aeb2 9e57 f0b1 3db5 96b5
00000310: cdcd a9b2 cdb8 a230 9dab 6fbd 0444 dfbc
00000320: d32e db3d 083d b8bd 2929 203c c10b 9c3d
00000330: f8e0 1cbe 211f 703d 2904 023e 6ebd 7a3e
00000340: f991 8a3d 9c1d 2e3e e1e9 033d 8627 bbbd
00000350: 6f8c 44bc 824d 513d c82e 2cbd 1419 a5ba
00000360: b5d2 f13d d5e8 c43c 4e24 803c d954 ab3d
00000370: 4616 573d 867d 033e fbe4 383e 8795 d73d
00000380: 9855 2e3e ea31 a53e 83f5 073e 0ec1 133d
00000390: 1d67 993e fc9a 323e c11d 233e 5793 9d3e
000003a0: 722e 213e e498 183e 2ce4 af3e 23ed 143e
000003b0: 0df2 d53c 4162 b93e 8227 7d3e 0e81 763e
000003c0: ced9 b13e da90 4e3e b6b4 4e3e c1ab 30b2
000003d0: a2d1 7ab4 84e1 cd32 4f6e 0330 e1e0 30b2
000003e0: 0b11 2cb1 f3c1 f2b4 2ff8 f934 f5c7 7135
000003f0: b978 1cbc a814 20be ab47 93be 5d5d 473e

conv2.bias f4 [6]
0.083731756 -0.25201985 -0.06530047 -0.44982594 -0.6730612 -0.12394172
00000000: 8e7b ab3d bf08 81be 41bc 85bd 964f e6be
00000010: bd4d 2cbf 28d5 fdbd

fc1.weight f4 [10, 54]
0.22940914 0.2908981 0.19197382 0.1235945 0.59547234 0.405774 0.12477393 0.47764927
0.49931362 -0.23473763 -0.061481826 -0.22158435 0.08294791 -0.25709826 -0.16176715 0.35154015
-0.006058817 0.11419363 -0.167803 -0.12681521 -0.19448876 -0.015270307 -0.21304153 -0.20658346
0.4184057 -0.015852254 0.16114748 -0.18524693 -0.036245022 -0.18825276 -0.0071576326 -0.1272234
-0.108579144 0.33528557 0.11494266 0.23411003 0.023842823 -0.08453967 -0.04901115 0.039702643
-0.034041487 -0.05673136 0.24904417 0.12432465 0.24862218 0.17991187 -0.11567325 0.11652371
-0.17765617 -0.12271011 -0.422905 -0.04831051 -0.22225158 -0.14359234 0.2748087 -0.14446719
0.15103243 0.25235543 -0.20860702 -0.06667594 0.16843332 -0.09086022 -0.15811282 0.31208372
-0.2589946 -0.008137225 0.2901623 -0.1837804 0.01442724 -0.06312335 0.1353732 -0.023829341
0.1966758 -0.32051122 0.06566048 0.24173765 -0.018706467 0.06550499 -0.08418502 0.19412953
0.034825534 0.19896097 -0.23006913 0.028807025 0.22533625 -0.237124 0.012489501 -0.07046949
0.04578777 -0.06785327 0.20025125 -0.40329775 -0.18268858 0.1980926 0.0183684 -0.02858483
0.017427232 -0.10850479 -0.091647826 0.107105725 -0.614347 -0.23134471 0.07158239 0.4143189
0.36633152 0.27482396 0.1146445 0.33551228 -0.111265324 0.047052942 -0.058320615 0.039874535
0.10265013 0.14339262 0.32783648 0.15492423 0.10570775 0.31487128 0.11532546 0.25685987
-0.20936328 -0.08765097 -0.1234028 -0.55785173 0.10603108 -0.23181282 0.15590283 0.21321058
0.31407157 -0.085895084 -0.10298468 -0.15590645 -0.5490454 0.01803759 -0.2607517 0.26519677
0.24224734 0.24872886 -0.21740082 -0.07022784 -0.13402274 -0.27743706 0.121105365 -0.12237702
0.030328458 0.08309826 0.13944505 -0.12275153 -0.020735659 0.014068877 -0.21647479 0.18916084
-0.09945816 -0.08587981 0.030025927 -0.0012838922 -0.047721494 -0.041195445 0.1528094 -0.08014951
-0.052290745 -0.18534699 0.11814326 -0.12946112 0.048020974 0.083514236 0.29753762 0.23242204
-0.008635149 -0.11279995 -0.14544475 0.3295438 -0.013075939 0.25262657 -0.008977769 0.012055851
-0.11239754 -0.1912292 0.009803853 -0.14950182 0.2403949 -0.12457735 0.24604292 -0.02699627
0.09368853 -0.112929404 -0.27120674 0.028730094 -0.082975425 0.24428329 -0.11025189 0.23699254
-0.045724582 0.018250793 -0.054869223 -0.31263205 -0.04576204 -0.22757542 0.2835517 -0.09552639
0.052492175 -0.05105173 0.071836844 -0.004968657 -0.08280833 -0.417387 -0.23966175 -0.006413136
-0.16782117 -0.050040025 -0.0388843 0.13308296 0.14755918 0.19183886 -0.21707562 0.09792962
0.10317324 -0.21319987 -0.22116385 0.26681 -0.4576595 -0.14049532 0.58825094 -0.0745455
0.12440525 -0.0353925 0.013683166 0.20095393 0.013304602 -0.03009429 0.051951554 -0.015836658
-0.20475604 -0.010263318 0.06926135 0.16520584 0.116135105 -0.12518357 -0.081680015 0.14510936
-0.081673786 -0.10032411 0.060909543 -0.03393638 -0.008819959 0.10997366 0.061549023 -0.11290092
0.05618238 0.0397555 -0.14506565 0.11896334 -0.02151865 0.10088662 0.0804054 0.12997925
00000000: 3bea 6a3e 99f0 943e c994 443e 1d1f fd3d
00000010: e070 183f 9cc1 cf3e 7989 ff3d 728e f43e
00000020: 09a6 ff3e 105f 70be 5ed4 7bbd 02e7 62be
00000030: 98e0 a93d 62a2 83be 4aa6 25be 12fd b33e
00000040: 0a89 c6bb 5ade e93d 8dd4 2bbe d9db 01be
00000050: 1028 47be 4f30 7abc 8f27 5abe 9d8a 53be
00000060: 4639 d63e 96dc 81bc d803 253e 5fb1 3dbe
00000070: a975 14bd 55c5 40be 938a eabb da46 02be
00000080: be5e debd 8daa ab3e 0f67 eb3d 8aba 6f3e
00000090: 0652 c33c 2223 adbd eabf 48bd 3d9f 223d
000000a0: 166f 0bbd 245f 68bd 6f05 7f3e ec9d fe3d
000000b0: d096 7e3e d13a 383e 19e6 ecbd fca3 ee3d
000000c0: 80eb 35be 704f fbbd 0187 d8be 3ee1 45bd
000000d0: eb95 63be df09 13be bab3 8c3e 35ef 13be
000000e0: 3fa8 1a3e bb34 813e 149d 55be 658d 88bd
000000f0: c979 2c3e ec14 babd 54e8 21be 70c9 9f3e
00000100: f19a 84be ff51 05bc 2790 943e ee30 3cbe
00000110: 3b60 6c3c d146 81bd 469f 0a3e c035 c3bc
00000120: 6265 493e 0c1a a4be 0079 863d 138a 773e
00000130: 4e3e 99bc 7b27 863d 3269 acbd e4c9 463e
00000140: 38a5 0e3d 6dbc 4b3e 3e97 6bbe b6fc eb3c
00000150: 8cbe 663e a2d0 72be c4a0 4c3c 4f52 90bd
00000160: f58b 3b3d a8f6 8abd aa0e 4d3e 0b7d cebe
00000170: b712 3bbe c9d8 4a3e 5479 963c bc2a eabc
00000180: 8ec3 8e3c c237 debd dbb1 bbbd 3f5a db3d
00000190: d845 1dbf a1e5 6cbe ca99 923d 9b21 d43e
000001a0: ce8f bb3e bab5 8c3e bcca ea3d 44c8 ab3e
000001b0: 13df e3bd 96ba 403d 99e1 6ebd 7b53 233d
000001c0: 3b3a d23d 84d5 123e 2fda a73e 75a4 1e3e
000001d0: 4e7d d83d cf36 a13e c12f ec3d 2383 833e
000001e0: 5463 56be 5a82 b3bd 9bba fcbd 5fcf 0ebf
000001f0: d326 d93d 5760 6dbe fea4 1f3e e053 5a3e
00000200: fdcd a03e c3e9 afbd a2e9 d2bd f1a5 1fbe
00000210: 3d8e 0cbf 91c3 933c 3f81 85be dfc7 873e
00000220: b00f 783e c7b2 7e3e 529e 5ebe 9dd3 8fbd
00000230: 423d 09be 3b0c 8ebe 1706 f83d cea0 fabd
00000240: 6373 f83c 6c2f aa3d afca 0e3e 2765 fbbd
00000250: d4dd a9bc 2681 663c 91ab 5dbe 61b3 413e
00000260: b8b0 cbbd c1e1 afbd eff8 f53c 4648 a8ba
00000270: 9d77 43bd 8ebc 28bd 117a 1c3e 6d25 a4bd
00000280: d22e 56bd 9acb 3dbe 18f5 f13d 7591 04be
00000290: a4b1 443d 8309 ab3d da56 983e 0b00 6e3e
000002a0: 717a 0dbc a903 e7bd 78ef 14be f7b9 a83e
000002b0: 773c 56bc 4558 813e 7e17 13bc e785 453c
000002c0: ae30 e6bd 96d1 43be 57a0 203c 0117 19be
000002d0: 152a 763e 6922 ffbd adf2 7b3e 4827 ddbc
000002e0: c6df bf3d 8847 e7bd 9cdb 8abe 605b eb3c
000002f0: 05ef a9bd 6625 7a3e becb e1bd 2cae 723e
00000300: b349 3bbd b082 953c 8dbe 60bd 4f11 a0be
00000310: fa70 3bbd 8809 69be b02d 913e 57a3 c3bd
00000320: 0902 573d 9e1b 51bd 321f 933d 1ed0 a2bb
00000330: 6a97 a9bd c0b3 d5be e469 75be 4925 d2bb
00000340: 50d9 2bbe c5f6 4cbd 2545 1fbd e646 083e
00000350: c119 173e 6871 443e 1249 5ebe 538f c83d
00000360: 7e4c d33d 1151 5abe c778 62be 529b 883e
00000370: 5952 eabe 01de 0fbe 9d97 163f 50ab 98bd
00000380: 2ec8 fe3d baf7 10bd 5c2f 603c dec6 4d3e
00000390: 8cfb 593c 4d88 f6bc 27cb 543d e1bb 81bc
000003a0: 91ab 51be 7a27 28bc e5d8 8d3d b82b 293e
000003b0: 3ed8 ed3d 1f30 00be da47 a7bd 8c97 143e
000003c0: 9644 a7bd ba76 cdbd 497c 793d e000 0bbd
000003d0: 9781 10bc df39 e13d d41a 7c3d 9938 e7bd
000003e0: 7f1f 663d aad6 223d 178c 14be 0da3 f33d
000003f0: e147 b0bc a59d ce3d 96ab a43d 4819 053e

fc1.bias f4 [10]
0.056575652 0.41684422 -0.060297605 0.21951029 0.025102606 0.0120472815 0.009536555 -0.2125372
0.3226053 -0.2538784
00000000: dfbb 673d 9b6c d53e 9ffa 76bd 4ec7 603e
00000010: fba3 cd3c f661 453c 363f 1c3c 5aa3 59be
00000020: 862c a53e 5afc 81be

fc2.weight f4 [10, 10]
-0.2813171 -0.116997555 -0.07390148 -0.36335444 0.4555838 -0.40311092 0.21529259 0.38360164
-0.2809237 0.107582785 -0.19946268 0.41505828 -0.29581815 0.13678409 0.14286508 0.24527906
-0.09671727 -0.20063424 0.9372161 -0.04645967 -0.08752353 -0.020777255 -0.025739966 -0.025344022
-0.010653454 -0.015411282 -0.04245741 -0.028119033 -0.0030666231 -0.0068536657 0.19375427 0.50804806
-0.38558894 -0.12815103 0.13032351 0.064243026 0.06658801 0.076745935 -0.35601428 -0.064293854
-0.10152835 -0.024679992 -0.043404534 -0.048871484 -0.011513509 -0.026765663 -0.027766159 -0.02145612
-0.031184176 -0.015542631 0.1759323 -0.4517192 -0.01252778 -0.52608734 -0.34999925 0.18228284
-0.3968239 0.054292813 -0.09055885 0.52741206 0.4320068 -0.44491965 -0.074592605 0.032709785
-0.22557499 -0.64108384 -0.08027648 0.0037629614 -0.3423066 -0.8848925 0.034627087 -0.17116643
0.3450575 -0.05918036 0.4313575 -0.23611772 -0.09669667 -0.29017523 -0.18012589 0.03508474
-0.15006764 -0.52460676 -0.017013568 0.15370867 -0.4235223 0.3936452 0.18895905 0.31811142
-0.23119396 0.13793117 -0.52677613 0.44390824 0.5347685 0.4166242 0.0006332564 0.40090504
-0.062442187 -0.25731364 -0.0047050295 -0.2558679
00000000: cc08 90be 6a9c efbd a959 97bd 9809 babe
00000010: 4842 e93e 8e64 cebe a975 5c3e 6f67 c43e
00000020: 3bd5 8fbe 5d54 dc3d f23f 4cbe 8582 d43e
00000030: 7a75 97be 2111 0c3e 394b 123e 6f2a 7b3e
00000040: b413 c6bd 1073 4dbe 65ed 6f3f 7f4c 3ebd
00000050: 893f b3bd 1035 aabc 9fdc d2bc 449e cfbc
00000060: d38b 2ebc 9a7f 7cbc d2e7 2dbd e359 e6bc
00000070: 66f9 48bb b794 e0bb 8567 463e 700f 023f
00000080: ea6b c5be 063a 03be 8773 053e d991 833d
00000090: 4b5f 883d f92c 9d3d 8147 b6be 7fac 83bd
000000a0: 18ee cfbd b22d cabc f4c8 31bd 772d 48bd
000000b0: 28a3 3cbc aa43 dbbc db75 e3bc bfc4 afbc
000000c0: f575 ffbc 85a6 7ebc 9927 343e bd47 e7be
000000d0: 5141 4dbc a9ad 06bf 1a33 b3be 5aa8 3a3e
000000e0: 812c cbbe 2462 5e3d eb76 b9bd 7a04 073f
000000f0: ff2f dd3e 82cc e3be 02c4 98bd b2fa 053d
00000100: 21fd 66be 121e 24bf ff67 a4bd 049c 763b
00000110: d042 afbe 5188 62bf 22d5 0d3d 4146 2fbe
00000120: 60ab b03e 1b67 72bd e4da dc3e d8c8 71be
00000130: e708 c6bd d991 94be ec72 38be 04b5 0f3d
00000140: 55ab 19be a14c 06bf 0a60 8bbc ce65 1d3e
00000150: ead7 d8be dd8b c93e 7b7e 413e 80df a23e
00000160: 1cbe 6cbe d43d 0d3e cdda 06bf f147 e33e
00000170: 97e6 083f c44f d53e 1e01 263a 6d43 cd3e
00000180: 61c3 7fbd 9dbe 83be a62c 9abb 1e01 83be

fc2.bias f4 [10]
-0.2877119 0.27973914 0.0037170586 0.29657975 -0.008593343 -0.24188082 0.20002043 0.095624894
-0.17269826 0.011696075
00000000: f94e 93be f839 8f3e e599 733b 4dd9 973e
00000010: 18cb 0cbc 9baf 77be 28d2 4c3e fcd6 c33d
00000020: d0d7 30be e5a0 3f3c
